denoise/conv_denoiser_mnist.pth (torch, 31312 bytes, 7 tensors)

encoder.0.weight f4 [16, 1, 3, 3]
000000 d2 a7 e2 3d 1e 54 64 3d 60 20 87 3d c5 c5 81 3e
       0.110671654 0.055744283 0.06597972 0.253462
000010 9b 2d ac 3e 37 e4 c5 3d f8 e1 8b 3e c6 6c a1 3e
       0.33628544 0.09662669 0.27320838 0.315283
000020 c3 77 a8 3d 5f dd 1c 3d 97 95 31 3f 2d 35 ad 3d
       0.08225968 0.038297053 0.6936888 0.08457408
000030 0d 22 b3 3d 14 c5 da 3d e9 5e 93 3d b1 b7 6e 3d
       0.08746729 0.10682121 0.07195837 0.05828065
000040 1a a3 7a 3d c0 34 13 3d b2 4c 5a bd e6 10 bf bd
       0.061190702 0.03593898 -0.0532958 -0.09329395
000050 cd 1a 05 be ed 01 f3 bd fc 1c 4e be 89 53 4d be
       -0.12998505 -0.11865602 -0.20128244 -0.20051397
000060 2c 30 98 bd 03 4a ca bd 8d 24 9a bd a0 f0 27 be
       -0.07431063 -0.09877398 -0.07526503 -0.16400385
000070 55 ce fc bc 77 30 f4 3c 05 ac c5 c0 9f c7 15 3d
       -0.030860106 0.029808266 -6.1772485 0.036567327
000080 29 1d 71 3d 4a 2a dd bd a7 53 16 3c c6 67 ab 3c
       0.0588657 -0.107990816 0.009175218 0.020923506
000090 61 58 13 bc 6b 2f 5b 3d 14 0e 84 3e c4 10 9a bd
       -0.008993239 0.05351202 0.2579199 -0.07522729
0000a0 82 e2 ae be 31 e5 de 3e 3f 6f 5a bd c1 fe ac bc
       -0.34157187 0.43534234 -0.05332875 -0.02111757
0000b0 bb 87 27 3e 8b 52 6c 3b 0a 27 e5 3c bd 95 9d 3c
       0.16360371 0.0036059942 0.027972717 0.01923644
0000c0 20 11 33 bd 2c 60 b3 bc 08 26 58 bd 91 a4 4d bd
       -0.043717504 -0.021896444 -0.052770644 -0.05020577
0000d0 ee c1 30 c1 68 42 04 be d8 6b c5 bd 00 9a 13 be
       -11.047346 -0.12915957 -0.0963971 -0.14414215
0000e0 ff 70 d4 c0 10 6a 2f bd da a5 47 3d d5 1e 2c bd
       -6.6387935 -0.04282576 0.048742153 -0.04202159
0000f0 0f 9a 06 bd 97 4f 25 bc a6 44 41 3a 6b 9a 89 bd
       -0.032861765 -0.0100897765 0.0007372595 -0.06718906
000100 97 42 55 bd 47 65 e2 bc 5c 99 b7 bc d5 b1 c2 3c
       -0.05206546 -0.027636183 -0.022411995 0.023766438
000110 85 f0 d9 bc a6 2c c1 3d 0c fc 7e 3e d1 bd c6 3e
       -0.026603946 0.09432344 0.24900836 0.38816693
000120 93 28 d2 be 78 5c ae 3d 19 b5 e7 bd d6 ef 51 3e
       -0.4104658 0.08513731 -0.113138385 0.20501646
000130 07 d7 21 3e ce 4c 0a be 50 90 1f 3d 1f 3f c4 3c
       0.15804683 -0.13505861 0.038955986 0.02395588
000140 77 9d d9 bd 03 c2 ec 3a 75 22 84 bc 99 3d 0d bd
       -0.10625737 0.0018063191 -0.016129712 -0.034482572
000150 ef fb cf bd 18 20 5b c1 58 cd 00 3d 0c d0 9e bd
       -0.101554744 -13.695335 0.03144583 -0.077545255
000160 ea 2c 1e bd a9 d5 2c 3c df 19 27 3c a4 e3 30 3c
       -0.038617052 0.010548987 0.010199039 0.010796461
000170 25 77 42 3d f8 52 b0 3c 19 e9 81 3d 76 86 48 3f
       0.047476906 0.021523938 0.06343288 0.7833017
000180 fe 90 06 3d 8f 1a 89 3d ad 63 17 3d 7b 7b 8a bc
       0.03285312 0.06694519 0.036960293 -0.016904583
000190 39 0e 92 bb 97 a4 e8 3b c5 ef 19 bd cd 0b 69 3d
       -0.004457262 0.0070996988 -0.037582178 0.05689602
0001a0 43 07 58 bc f3 3b 58 c1 a3 9d 1f be a5 28 96 bd
       -0.013185325 -13.514636 -0.15587477 -0.07331971
0001b0 27 59 95 be f2 81 7b be ad ec 26 be 97 e6 33 be
       -0.2916958 -0.24561289 -0.16301222 -0.17568432
0001c0 19 71 08 be 0a c6 1e be 44 23 c2 bd ea 09 d2 bd
       -0.13324393 -0.15505233 -0.09479383 -0.10255797
0001d0 fb 98 12 be 44 c6 5d 3e 24 fd 92 3e 48 c9 30 3e
       -0.1431617 0.21657664 0.28708756 0.17264283
0001e0 00 06 c9 3d 4d 0d 8b bc 61 ce 00 3c 77 b6 00 3e
       0.098155975 -0.016974116 0.007861705 0.12569605
0001f0 7c 22 0c 3e cb 86 f8 3c 9b 64 df 3c 42 f1 01 3d
       0.1368503 0.030337712 0.027269652 0.031724222
000200 68 f7 54 3d 8f 2f 6c 3c 7f 90 2d 3f f5 bd 26 3d
       0.051993757 0.014415636 0.6779861 0.0407085
000210 27 53 4e bd e0 a8 dd bb 78 61 bd 3c a1 e1 bc 3e
       -0.05037227 -0.0067645162 0.023117766 0.3689089
000220 63 48 2d 3e c5 5d 4e 3e 3f 81 aa 3e 81 ff b3 3d
       0.16922145 0.20152958 0.33301732 0.08788968
000230 e3 14 80 3d 34 e1 0e 3e 1d 74 d9 bd 2b 67 e2 bd
       0.06253984 0.13953096 -0.1061785 -0.11054834

encoder.0.bias f4 [16]
000000 b8 68 3b bf 16 c3 5e bf 7e 9c 4d 3f a7 07 93 3e
       -0.73206663 -0.8701643 0.80316913 0.28716776
000010 f3 2a d2 be 93 c9 b8 3e dd 58 b1 3e f1 25 36 3e
       -0.41048393 0.3609129 0.3463811 0.17787911
000020 f0 48 57 3e 34 22 98 3e b6 bd 55 bf a7 f6 b1 3e
       0.21023917 0.29713595 -0.834926 0.34758493
000030 82 2c 0c 3f 77 00 ed 3d 8d f2 25 bf 70 f4 29 bf
       0.54755414 0.11572354 -0.6482323 -0.6638861

encoder.3.weight f4 [32, 16, 3, 3]
000000 85 2c 71 3e c0 8c d4 3d e4 58 93 3e 8c b0 0f be
       0.23552139 0.103784084 0.28778756 -0.14032191
000010 a5 a2 19 bf 14 79 27 be 87 33 38 be 70 86 75 3d
       -0.600138 -0.16354781 -0.17988406 0.059942663
000020 99 58 e7 3d 58 89 e1 3d de d7 ea 3d 9e 7e bc 3e
       0.112961955 0.11012524 0.11466955 0.3681535
000030 2c 7a 46 be c9 7c 30 bf ca 17 92 3c e1 ec 6d bf
       -0.19382542 -0.6894041 0.01783361 -0.92939574
000040 e8 8e 3f bf c4 66 a1 3e 62 c9 83 bd ce 4d 0e bf
       -0.7482743 0.31523716 -0.06434895 -0.5558747
000050 ef 46 75 be cf 7a 9d 3e a2 db b6 3e ae fe 52 3d
       -0.2395284 0.30757758 0.35714442 0.051512413
000060 dc a3 9e bd 7e 63 83 3e b6 e9 fc 3b 86 4f 91 be
       -0.077460974 0.25661844 0.00771829 -0.28380984
000070 db 06 77 be 60 f7 b8 be c1 d1 02 be bf 90 3c 3e
       -0.24123709 -0.36126232 -0.12775327 0.18414591
000080 f4 54 55 3e f9 f5 03 3e 86 1a 0f 3e 68 45 d4 3d
       0.20833188 0.128868 0.13974962 0.10364801
000090 0b e8 24 3e 08 9c 0f 3d 49 10 d7 3d 87 17 d3 3b
       0.16104142 0.035060912 0.10501153 0.0064420137
0000a0 da 2d b7 3d dd 28 83 3e bb 4e b1 3d 3e 2d 8d bc
       0.08944292 0.25617114 0.08657595 -0.017233487
0000b0 aa 6e 07 3d 02 61 a1 bd b8 cf 99 bd b3 34 4b be
       0.03306452 -0.07879831 -0.07510322 -0.19844322
0000c0 e8 d8 49 3e bd cf 80 3e 1a 9a fa 3c 6b ea 85 3d
       0.1971165 0.25158492 0.03059106 0.06538852
0000d0 da 1f 3f bd 75 ba 54 be 71 55 8c bd 3b 61 c7 3d
       -0.046661235 -0.20774253 -0.06852234 0.09735342
0000e0 61 4f a7 bd 05 06 3d bb e2 14 6c bd 72 05 c0 be
       -0.08169437 -0.00288427 -0.057637103 -0.37504154
0000f0 d1 f5 1a bd 8b 11 33 3b f4 55 d2 bd f3 b3 f0 3c
       -0.037832085 0.002732369 -0.102703005 0.029382681
000100 a3 54 32 3e 6e 5b 5a 3e f7 a1 21 bd 9a 58 8d bd
       0.17415099 0.2132394 -0.039461102 -0.06901665
000110 74 aa ee 3c 76 e5 9e 3c 63 26 d3 3c cc 12 86 3c
       0.029134013 0.019396525 0.02577514 0.016366385
000120 bc eb 32 3d ab 59 d9 3d 90 d5 ad bc f1 88 86 3b
       0.043681845 0.10612806 -0.021219999 0.00410568
000130 e7 37 ac 3d 8a a8 8a 3c 6d d3 cd bd f5 eb a9 bd
       0.084091 0.016926069 -0.10050092 -0.08296958
000140 a2 46 62 bd f6 28 6b be 29 38 c8 be f3 c0 af be
       -0.055243142 -0.22964844 -0.39105347 -0.34326896
000150 6a 4c aa 3e 08 0e c1 3e 73 03 02 be b8 91 82 3e
       0.33261424 0.37706017 -0.12696628 0.255018
000160 1f 32 8a 3e 9a fe 84 bd ef 08 01 3f b7 3e 24 3f
       0.26991364 -0.06493874 0.50404257 0.64158195
000170 74 59 4d 3f b4 c5 fb be 55 c9 3b bf 00 56 84 3e
       0.8021462 -0.49174273 -0.73354083 0.25846863
000180 39 1b 7f bf e5 f5 af bd bb 69 c6 3e 0f 80 8d be
       -0.99650913 -0.085918225 0.3875254 -0.27636763
000190 f7 48 f8 bd 7e f0 1c be 27 da 17 3e d3 af 38 3e
       -0.12123292 -0.15326115 0.14829312 0.18035822
0001a0 00 88 53 3e 09 af e5 3c d2 72 87 3d dc 79 14 be
       0.20657349 0.028037565 0.06613697 -0.1449961
0001b0 34 93 91 3d 6d 50 5e 3e 5b 75 20 3e 5b c0 b6 bd
       0.07108155 0.21710368 0.15669768 -0.08923408
0001c0 79 29 c2 bd c1 fe 09 3e ba 6e ab be eb 66 92 be
       -0.094805665 0.13476087 -0.33482915 -0.28594145
0001d0 92 06 60 3d e8 80 a4 3b 61 17 d8 3a 83 ec 07 bd
       0.054693766 0.0050202496 0.001648646 -0.03318454
0001e0 98 4c 8b 3d 38 c3 5d 3e d3 41 93 3d b1 d0 1c 3c
       0.068017185 0.21656501 0.07190289 0.00957124
0001f0 05 a5 47 bd c6 b1 8c 3b 45 ce 13 3f f3 a1 2c 3f
       -0.04874136 0.004293653 0.5773662 0.67434615
000200 48 63 2e 3f 88 e4 03 be f5 e4 52 be b8 2d 74 3e
       0.6812024 -0.12880147 -0.20595153 0.23845565
000210 c0 56 e6 be 14 c9 09 bf ee e5 2a be 34 a5 32 3e
       -0.4498806 -0.53822446 -0.16689274 0.17445832
000220 dc 11 16 3c c3 8e 05 3e f0 95 37 3e 8e a5 a3 bd
       0.009159531 0.1304274 0.1792829 -0.079905614
000230 30 a1 43 3d 6d ec 53 be f3 7e 8f be e2 dc 84 bb
       0.047761142 -0.20695658 -0.28026542 -0.0040546516
000240 7d 5b de 3b d8 7b d6 bd 7b f3 7a be 13 01 e1 be
       0.0067858086 -0.1047284 -0.24506943 -0.43946132
000250 d3 3e c1 be 28 50 a5 be e3 0c c5 be 0d 21 ba 3c
       -0.37743244 -0.32287717 -0.38486394 0.022720838
000260 01 6d ec 3c db f9 1e be 41 b9 85 bd 4b bd c6 be
       0.02886057 -0.15525 -0.06529475 -0.38816294
000270 f3 1b ee be d9 48 11 bf 4d f4 4a bf 00 b1 73 bf
       -0.465057 -0.5675178 -0.79279023 -0.95191956
000280 25 73 31 bf d8 90 d0 be 4d 1a 81 3d 78 1e d2 3e
       -0.6931632 -0.40735507 0.063038446 0.4103887
000290 e0 7d 88 3e 97 38 3f 3e 47 ec 78 be c6 35 53 3e
       0.26658535 0.18673931 -0.24308883 0.20625982
0002a0 62 f7 04 be c5 9d ab 3e ad f6 82 3d 5e 4d 49 be
       -0.12984994 0.33518806 0.06394706 -0.1965842
0002b0 b8 cb d3 bd 2d 61 6b bd ad b9 d8 3d 51 41 b1 3d
       -0.10341591 -0.05746572 0.1058229 0.08655036
0002c0 2c a6 29 3c 31 25 d7 3e 92 0b 83 3d 69 2d e3 3c
       0.01035456 0.42020562 0.06398691 0.027731614
0002d0 be 47 18 bd e9 9b 37 be a2 02 90 bd d3 11 2a 3e
       -0.037177794 -0.17930569 -0.07031752 0.16608362
0002e0 4d 44 85 3e de 27 a0 39 ac fa 82 3d bb 9f 9a 3d
       0.26028672 0.00030547281 0.06395468 0.075499974
0002f0 fe 1f 26 3d 4e 7b 2e 3e eb 2f 8b 3e 8c 36 91 3e
       0.040557854 0.17039225 0.27184996 0.28361928
000300 7e 20 2c 3c aa 96 32 3e ff 24 91 3e 05 ca f1 3d
       0.010505794 0.17440286 0.28348538 0.1180611
000310 6e 9a 4c 3d 0f e7 38 bd 0c fa 42 be ed 5d 3e be
       0.049951963 -0.04514223 -0.19040698 -0.18590517
000320 28 a0 e1 bd 9b 0e f5 3d 71 c8 18 3d f0 ba 91 3e
       -0.110168755 0.119656764 0.03730053 0.28462934
000330 18 61 11 bd d5 59 25 be a7 09 83 3d d7 8f ca 3b
       -0.035492986 -0.1614755 0.063983254 0.006181698
000340 fe f9 52 3d 48 2e 38 bc 7e af a5 3d de 3e 1e 3e
       0.051507942 -0.011241503 0.08090113 0.1545367
000350 00 03 16 bd b1 30 60 3c e7 12 7c 3c 1f d9 b7 3d
       -0.036623955 0.013683484 0.015385366 0.089769594
000360 ea 13 18 3e 55 d4 8c 3c 29 41 e1 3c c6 40 97 bc
       0.14851347 0.017191092 0.027496891 -0.018463504
000370 e6 7a 83 3c ec 10 fa 3d 1d d4 49 bd ff 82 52 bd
       0.016049813 0.12210259 -0.049274553 -0.05139446
000380 a7 af b2 bd 13 1f 97 bd 96 aa 73 3e e7 2b 0b 3e
       -0.08724909 -0.07378974 0.23795542 0.13590966
000390 fa 32 c6 3e 2b 9e 95 3c 6c 7f 2f 3e 16 7a 82 3d
       0.38710767 0.018263897 0.17138451 0.06370942
0003a0 c0 67 33 3e ab e3 16 3d 05 29 a1 3e 8c 44 14 be
       0.17520046 0.036838215 0.31476608 -0.14479274
0003b0 3d 4c 01 bf 95 3c 1d bf 33 24 2a bf e1 a7 87 bf
       -0.50506955 -0.61420566 -0.66461486 -1.0598108
0003c0 77 5c f8 be a9 3c a3 be 17 fd a0 3e 0e 30 b8 bd
       -0.48508045 -0.31882218 0.31443092 -0.08993541
0003d0 ba 59 05 3e 9c ab 0a bc 1f 97 b2 3e a9 aa f5 3d
       0.13022509 -0.008463766 0.3488092 0.119954415
0003e0 6d b1 5e 3e 69 9b 13 3e 4d 11 3c 3e e0 a3 c7 bd
       0.2174737 0.14414753 0.18365975 -0.097480536
0003f0 d1 a1 ae bc dc 3c 36 be bf 33 1d be 9d f5 e3 bc
       -0.021317394 -0.17796654 -0.15351771 -0.027827078

encoder.3.bias f4 [32]
000000 05 7f c4 3e ac fe 81 3e af a5 32 bd b8 0a c5 3d
       0.38378158 0.25389612 -0.04361504 0.09621185
000010 cb be 2f 3e 40 19 b9 bd dc aa b8 bd 99 bc 87 3b
       0.17162625 -0.09038019 -0.09016964 0.0041423556
000020 f8 a6 96 3e 6b ed d2 bb b4 31 0d 3d aa 26 60 3c
       0.29424262 -0.006436994 0.03447123 0.013681093
000030 b0 01 6e 3c 44 c9 3c be 2b 90 83 be 01 c2 fb 3e
       0.0145267695 -0.18436152 -0.2569593 0.4917145
000040 f9 43 c8 bc 22 48 10 3f 4e dd 0d bd ad 40 94 3e
       -0.024446474 0.56360066 -0.03463488 0.28955594
000050 38 30 83 bd 38 c5 44 3c 8c b4 fc bc da a1 45 3e
       -0.06405681 0.012009911 -0.03084781 0.19300023
000060 70 bf 03 3e 1d 71 81 3e ec c5 42 bd 8b 58 d3 3e
       0.12865996 0.2528161 -0.047552034 0.4127849
000070 81 1f 0d bd 0d 5c aa 3e 54 c0 c0 bc 71 7c 62 be
       -0.034453873 0.33273354 -0.02352921 -0.22117783

decoder.0.weight f4 [32, 16, 2, 2]
000000 4d 19 b8 3e 9e bc d3 bd 97 20 3a 3e 64 25 ab 3e
       0.35956803 -0.1033871 0.18176495 0.33426964
000010 04 75 f1 be 15 62 0f bc e6 62 af bd 60 08 dc 3e
       -0.47159588 -0.008751412 -0.08563785 0.4297514
000020 d6 0c 94 3e 4e ce c6 3d e8 18 ef 3e fc 40 65 3d
       0.28916043 0.09707318 0.4669869 0.055970177
000030 62 e9 5c 3c db 74 45 bd 29 df a5 3d 39 8c 38 3d
       0.013483377 -0.048207145 0.08099205 0.0450556
000040 4a 3b 9b 3d 69 9c d0 3e b8 9d 8f be 6c bb ef 3c
       0.07579668 0.4074433 -0.28050017 0.029264174
000050 54 34 0a bd a3 a5 88 be d1 58 fa 3d 4c a4 35 be
       -0.03374131 -0.2668887 0.12223972 -0.17738456
000060 e1 87 28 3e 60 66 30 bd 65 44 d2 bd 0d da 74 3d
       0.16458084 -0.043066382 -0.102669515 0.059778262
000070 3c 1e 73 be 79 fd 4d bd fc 02 2f 3e 9c a1 ad 3e
       -0.23742002 -0.05029056 0.17090982 0.3391236
000080 fc 0b 0d 3e f1 9d 62 3d 87 a1 24 be 07 ff d6 3d
       0.13774103 0.055326406 -0.16077243 0.10497861
000090 f5 b5 ff 3e 6f c1 87 bd dc 37 4f 3e 2c 4e ff 3e
       0.4994351 -0.066286914 0.20236152 0.49864328
0000a0 2e 1a 04 3e f8 5c 46 3d c8 0d 79 3e bc 39 07 bd
       0.12900612 0.048428506 0.24321663 -0.033014044
0000b0 1a b5 07 3e 3a 36 11 bf 98 a8 69 3e 26 e0 bc bd
       0.13252679 -0.5672337 0.2281822 -0.092224404
0000c0 f7 c9 be 3d fe e0 b9 3e 41 a9 0b be 68 9c bf bd
       0.093158655 0.36304468 -0.13638784 -0.09356004
0000d0 4b 29 cb 3c e6 f8 c4 be 06 aa 5b 3d eb 74 ae 3d
       0.024799963 -0.38471144 0.053628944 0.08518394
0000e0 f3 24 bd bb cb 39 80 3d 36 88 46 3d 6d f5 39 bd
       -0.005772227 0.06261023 0.048469745 -0.045400072
0000f0 be 5e 82 3e 1d 22 ae 3e c0 fa c9 bd d1 b3 5f 3d
       0.25462908 0.340104 -0.0986228 0.054614846
000100 ca 4a 8a 3e f9 93 e0 3e 47 44 6e 3e e0 97 47 be
       0.27010185 0.43862894 0.23268233 -0.1949153
000110 6b d4 24 be 7b d5 5c 3d 74 39 a2 bc ab 71 70 3e
       -0.16096656 0.05391453 -0.019802786 0.23480861
000120 d7 4d 83 3e c7 41 1b 3e f2 b1 95 bd 98 5f d7 3d
       0.25645325 0.15161811 -0.07309331 0.1051628
000130 2d 56 2c ba e4 9b 09 be 58 a1 83 bd 11 34 c5 3c
       -0.00065741205 -0.13438374 -0.06427258 0.024072679
000140 45 dc 9c bc 9c 34 36 bd 0c 91 80 be dd 80 3f 3e
       -0.019148001 -0.044483766 -0.25110662 0.18701501
000150 83 46 97 bc 5d 64 35 3d 42 37 6f bd f8 be 82 3e
       -0.01846624 0.044285167 -0.058402307 0.25536323
000160 c0 16 0d 3e f4 e8 5f 3d b2 c6 e7 bc 20 79 e7 bb
       0.1377821 0.05466552 -0.028292987 -0.007064
000170 29 bc 8e 3c 80 2f 8f bd 3d 4c 04 3e d1 f1 7c 3e
       0.017423706 -0.06991482 0.12919708 0.2470162
000180 30 90 59 be 36 cb c9 3d 8a 7d b2 bd 2a 05 a6 bc
       -0.2124641 0.098532125 -0.08715351 -0.020266134
000190 15 ee 56 3d 1c db 6b bd 34 cd 91 3d bb 74 45 3c
       0.052473146 -0.057582006 0.071192175 0.0120517565
0001a0 6d 40 d3 3d 70 99 32 bc 6a 5d 8c be e9 c3 b7 be
       0.103150226 -0.01090084 -0.2741502 -0.35891655
0001b0 35 6a 72 be df cd 6b be 0d 65 0c 3f a7 4b 55 3e
       -0.23673327 -0.23027752 0.5484169 0.2082964
0001c0 9a 61 44 3d 94 77 9d 3e 55 23 e6 bd 85 de 21 3e
       0.047944643 0.30755293 -0.11237208 0.1580754
0001d0 1e 17 33 bd 37 82 6a 3c d6 42 ca bd 18 86 5b bd
       -0.04372322 0.014313272 -0.09876029 -0.05359468
0001e0 5b 62 0e be 3c 0c 20 be 5c 93 f9 3b b8 fc 8c bd
       -0.13904707 -0.15629667 0.0076164436 -0.0688414
0001f0 62 e1 67 3e 34 1d f6 3c 3b a4 19 be 0f 02 1d bd
       0.2264457 0.030043222 -0.15004055 -0.03833204
000200 21 4b b0 3d 78 84 07 3f 05 ee 46 3e 75 b4 90 be
       0.0860808 0.52936506 0.19426735 -0.28262678
000210 d8 67 c3 bd 9d 45 b7 bd 9d c1 03 3d c6 7e d1 3c
       -0.09541291 -0.089488246 0.032167066 0.025573146
000220 e3 f7 ac be b3 aa 7f 3e 85 1f 78 be a4 7b 86 be
       -0.33782873 0.2496746 -0.24230774 -0.26266205
000230 0c 73 bd bd b1 19 a1 bc ea 54 ce bd 23 b8 e9 ba
       -0.09250459 -0.01966557 -0.1007479 -0.0017831366
000240 2c 27 06 3c 0a 96 ef 3d 7b fc 42 3e a1 12 4a 3e
       0.00818805 0.116985396 0.19041626 0.19733669
000250 c8 2a 40 3e b0 08 02 3f a5 21 9f bd ce dd f9 3d
       0.1876632 0.50794506 -0.07770089 0.12200509
000260 9c 48 ed 3e 4c af 4b bd 6b 33 12 3d de fe 6c 3b
       0.4634446 -0.049727723 0.035693567 0.0036162655
000270 1c fd 07 3e c6 bb 95 3d d4 6f 2b be d2 3b 84 3e
       0.13280147 0.073112056 -0.16741878 0.2582689
000280 3e 77 a6 3e b8 18 53 be 0e f1 33 be ac 5d c6 be
       0.3251285 -0.20614898 -0.17572424 -0.3874334
000290 73 92 b1 be 4d 75 01 3d f1 b1 0e 3c 19 74 44 bd
       -0.34682044 0.031606007 0.008709417 -0.04796228
0002a0 80 f4 bf be 2d c8 b8 bc 0d c4 df bc c3 95 9b be
       -0.37491226 -0.022556389 -0.027315164 -0.30387697
0002b0 57 50 97 be e7 f4 8c 3e 43 5e f4 3d 72 2f 99 3e
       -0.29553482 0.27530596 0.119320415 0.2991901
0002c0 06 33 ed bd b2 f3 80 be 1d c9 a6 bd 5c a9 c9 3e
       -0.115819976 -0.25185925 -0.08143828 0.39387023
0002d0 db 17 f9 bd 55 3f 99 3e 8c 8d ad 3d 61 2e 0d be
       -0.12162753 0.2993113 0.084742635 -0.13787223
0002e0 3b d6 48 3d 44 b7 29 bd 16 4c f4 3c 94 b0 24 3d
       0.04903243 -0.04143454 0.029821437 0.04020746
0002f0 09 de 3e 3d 63 1f d6 be 8d 0c 57 3e 05 85 2a be
       0.046598468 -0.4182082 0.21000881 -0.16652305
000300 f9 14 a9 3e fd 0b aa be 5f 47 bc bd 99 c8 01 be
       0.33023813 -0.3321227 -0.091933005 -0.12674178
000310 a0 1b 14 3f ef 90 5d 3e 86 30 3f 3b 80 05 72 3d
       0.5785465 0.21637319 0.002917321 0.059087276
000320 f4 c4 13 be ba 00 9d 3d 2c a1 eb 3d 0e 80 f8 3d
       -0.144306 0.07666154 0.115053505 0.121337995
000330 31 81 bf bc 0c e0 65 bd e4 68 a3 3d df 29 46 3d
       -0.023377033 -0.05612187 0.07978991 0.048379775
000340 f6 22 2b bd 5d bc 08 be 60 e4 ec bd ad 12 0d 3e
       -0.04178139 -0.13353105 -0.115669966 0.13776655
000350 06 1f 94 be e1 73 c0 bd f4 f7 9e 3e f1 f4 8a bd
       -0.2892992 -0.09397102 0.31048548 -0.06785
000360 9c 56 97 be 38 80 bf bc a8 99 a4 bc 02 f3 ae bc
       -0.29558265 -0.02337657 -0.0200928 -0.02135611
000370 bb ad e0 bd 08 67 53 3c 9a ad a3 3e 13 62 5a bd
       -0.109706365 0.0129029825 0.31968385 -0.053316187
000380 29 7e f4 3d 08 d7 a6 3e f6 fa 14 3d 7e e1 7a 3e
       0.11938126 0.3258593 0.036372148 0.24500081
000390 52 49 51 3e e8 75 dc bd 0a f1 62 3e b2 02 3f 3e
       0.20438126 -0.10764676 0.22162262 0.18653372
0003a0 c7 d7 be 3c 18 00 b0 bd d2 b5 ca be 0b 6b 15 3f
       0.02329625 -0.08593768 -0.39591843 0.5836646
0003b0 5b 4c ad 3e 5e f1 f0 3d dc fd 81 3e 1e 6c f8 bd
       0.33847317 0.11764787 0.25388992 -0.12129997
0003c0 b3 07 d8 3d 17 ac 83 3e ea 0a 8c 3d e5 f6 81 be
       0.105483435 0.25717232 0.06838019 -0.25383678
0003d0 96 6c 17 bc ea 5c 32 3e 9d e7 7a 3d 65 b3 f9 bd
       -0.0092421975 0.17418256 0.06125604 -0.1219242
0003e0 73 e5 d7 bd 8a 8d 8e 3d b6 62 70 bd 51 34 95 bd
       -0.10541811 0.0696059 -0.058687888 -0.07285369
0003f0 4e 2e e9 bd 2c a8 0e 3e e0 54 2c 3e a0 c9 fe 3c
       -0.11385785 0.1393134 0.16829252 0.031102002

decoder.0.bias f4 [16]
000000 bd b5 1e 3e b6 df 24 3d b2 3c 40 3e 0b ea da bc
       0.15499015 0.04025241 0.18773153 -0.026722929
000010 c5 8d d3 bd d7 b0 85 3e ac c1 88 be ef 4d 9a 3e
       -0.10329775 0.2611148 -0.2671026 0.30137584
000020 58 d2 d6 3e 45 11 f9 bd e4 bb 1b 3e ee eb 6d 3e
       0.41957355 -0.12161497 0.15208393 0.23234531
000030 b9 3a 6a 3e 1a d9 88 3d 18 aa b0 3c ad e0 5f be
       0.22873963 0.06682034 0.021565482 -0.21863051

decoder.2.weight f4 [16, 1, 2, 2]
000000 ce 19 8d 3e 21 91 35 be 3a a6 35 bf 2f 5a 88 bf
       0.2755875 -0.17731144 -0.70956767 -1.0652522
000010 7e 04 75 bf a9 2a 52 bf 8b ae 42 bf 6e a6 fe be
       -0.9570998 -0.82096344 -0.7604758 -0.4973635
000020 bb 05 23 bf d1 97 41 bf 66 7c 61 bf 3c a7 49 bf
       -0.6368062 -0.7562228 -0.8808044 -0.78770804
000030 f6 5f ea 3e ba ae ba be 6b af e2 3e 17 e1 23 be
       0.45776337 -0.3646143 0.44274458 -0.16003834
000040 89 aa 25 3f a1 85 ef 3d b8 a5 46 3f 47 b7 08 3f
       0.6471334 0.116954096 0.77596617 0.5340466
000050 d5 aa e3 be ad 3d 30 be d4 db 8b 3e 71 13 ad bd
       -0.44466272 -0.17211027 0.27316153 -0.08450974
000060 79 2c 08 3f a3 d4 f1 bc 3e f7 39 3f 89 0b b5 3e
       0.5319286 -0.029520338 0.72642887 0.35360363
000070 87 81 6c bf 46 91 88 bf 7a d6 87 bf 5f d6 83 bf
       -0.92385143 -1.0669334 -1.0612328 -1.0299796
000080 56 1b 3c bf 79 e1 1e bd 7a ec fe be 68 39 37 3e
       -0.7347921 -0.038789246 -0.49789792 0.17892992
000090 90 96 b8 3d a4 9a 21 3f 45 18 a4 3e 23 4c 41 3f
       0.090130925 0.6312659 0.32049766 0.755068
0000a0 dc af 35 3f ee 41 0e 3e 1a 68 e6 3d f6 33 1c bf
       0.70971465 0.13892338 0.112503245 -0.61016786
0000b0 c2 91 13 bf 79 b8 28 bf 8b e2 e3 be 99 4a 4c be
       -0.57644284 -0.6590648 -0.44508776 -0.19950332
0000c0 5d b8 a5 3e 8a 79 0d bf 19 d1 bb be 93 02 56 bf
       0.3236722 -0.5526358 -0.36682966 -0.8359768
0000d0 4d f7 65 3f 83 87 54 3f 0c d2 9d 3f e5 a4 67 3f
       0.89830476 0.83019274 1.2329726 0.90485984
0000e0 ee d5 77 3e 48 1a 20 3e 1f 5a c2 be c5 17 a4 3e
       0.24202701 0.15635026 -0.37959382 0.32049385
0000f0 4d b2 e5 3d ee 81 5c 3f a2 f9 31 3d 5f ad 00 3f
       0.11215649 0.86135757 0.04345096 0.50264543
