erase_watermark/best_watermark_remover_model.pth (torch, 543810 bytes, 12 tensors)

encoder.0.weight f4 [32, 3, 3, 3]
0	0xbd8cfcd3	-0.0688416
1	0x3dd3d6e6	0.10343723
2	0xbe44468b	-0.19167535
3	0x3d8b7827	0.068100266
4	0xbd9b930a	-0.07596405
5	0x3d632e29	0.055463944
6	0xbe1439e6	-0.14475212
7	0x3df07597	0.117411785
8	0xbc98dc11	-0.018659623
9	0xbe06d45c	-0.13166946
10	0xbe28740f	-0.16450523
11	0xbdbf56ab	-0.093427025
12	0xbe1b576a	-0.15170065
13	0xbe5105af	-0.20412324
14	0xbd85c1e1	-0.0653112
15	0x3dea1dab	0.1143144
16	0xbe44b242	-0.19208625
17	0xbc0f3eb2	-0.008742975
18	0x3c7aeb83	0.015314939
19	0xbc5c0486	-0.013428813
20	0xbe48b65d	-0.19600816
21	0x3e222068	0.15832675
22	0xbcd187b3	-0.025577402
23	0xbd849e1f	-0.06475472
24	0xbdb21a59	-0.08696432
25	0x3e29f257	0.16596352
26	0x3dc1d0a2	0.09463622
27	0xbdb60ec0	-0.08889532
28	0xbe1f9347	-0.15583526
29	0x3d34bf1a	0.04412756
30	0x3c90d37e	0.017678972
31	0x3e2baa89	0.16764273
32	0xbe00413e	-0.12524888
33	0x3a2c8098	0.0006580441
34	0xbd505a6a	-0.050867476
35	0xbc879f0a	-0.016555328
36	0x3d9ede02	0.077571884
37	0x3d8c8ae3	0.06862428
38	0x3d54c910	0.05194956
39	0xbe07200b	-0.13195817
40	0x3d7208cc	0.05909042
41	0x3e333254	0.17499667
42	0xbcf0d683	-0.029399162
43	0x3cf3f2cb	0.029778859
44	0xbdba3d31	-0.090937026
45	0x3de932f6	0.11386673
46	0x3d8a92ba	0.06766267
47	0x3cb64a1a	0.022252131
48	0x3d369ce3	0.044583213
49	0x3d0562f3	0.03256507
50	0x3dff6590	0.124705434
51	0x3dda5258	0.10660237
52	0xbddc2b01	-0.1075039
53	0xbe150b33	-0.14555053
54	0x3e09532d	0.13410635
55	0xbe5cb4c6	-0.21553335
56	0xbca9f7d9	-0.020748066
57	0xbe482151	-0.19543959
58	0xbdf523bd	-0.11969707
59	0xbe2787f4	-0.16360456
60	0xbe0280f5	-0.12744506
61	0x3d5e173c	0.054221377
62	0x3cfebdf7	0.031096442
63	0xbd5b1a85	-0.053492088
64	0xbbba0e91	-0.005678006
65	0xbdd8948b	-0.10575207
66	0x3da7acbb	0.081872426
67	0x3d7b3a31	0.061334793
68	0x3e4946a5	0.19655855
69	0x3da11809	0.078659125
70	0xbd9c02d7	-0.07617729
71	0x3df1ee8d	0.11813078
72	0xbdf4354b	-0.11924227
73	0x3d4ba57d	0.04971837
74	0xbd2d00fc	-0.042237267
75	0x3df8f6d9	0.121564575
76	0xbdd8cba4	-0.10585716
77	0xbdd2c9b8	-0.10292381
78	0xbe229ca3	-0.15880065
79	0x3e16e540	0.1473589
80	0xbe15f0cc	-0.14642638
81	0xbc5d114f	-0.013492896
82	0x3e2b379c	0.16720432
83	0xbe148af9	-0.14506139
84	0x3b0c43c7	0.0021402703
85	0x3cb03738	0.021510705
86	0xbcc0754c	-0.023493432
87	0x3b9c0597	0.0047614085
88	0xbdbc8e3d	-0.09206817
89	0x3dd97bb9	0.10619301
90	0x3d88f6e4	0.06687716
91	0x3da3ce56	0.0799834
92	0x3b090499	0.0020907281
93	0x3e3a8d07	0.1821786
94	0xbdc1a0cd	-0.094544984
95	0xbd98d878	-0.07463163
96	0x3d17a775	0.037024934
97	0xbda18750	-0.07887137
98	0xbdab846b	-0.08374866
99	0xbc18301e	-0.009288816
100	0x3e2d5112	0.16925457
101	0x3d8ab474	0.067727
102	0xbe28a53c	-0.16469282
103	0x3dd698c1	0.10478354
104	0xbd0bcf90	-0.034133494
105	0x3df0649b	0.11737939
106	0x3defd943	0.11711361
107	0xbcc1b4cb	-0.02364578
108	0xbd82b655	-0.06382433
109	0x3c15ada8	0.009135641
110	0x3dde8c05	0.1086655
111	0x3d5d2a05	0.05399515
112	0xbcd12f8b	-0.025535366
113	0xbe24f738	-0.16109931
114	0x3e2ef448	0.17085373
115	0x3d585cac	0.052822754
116	0xbc61fc61	-0.013793082
117	0xbe353992	-0.17697743
118	0xbc962fd8	-0.01833336
119	0xbe16aa98	-0.14713514
120	0xbd658727	-0.056037094
121	0xbe074e37	-0.1321343
122	0xbe0de821	-0.13858081
123	0xbd5ef4b8	-0.0544326
124	0xbc9b715f	-0.018974958
125	0x3d5fed06	0.054669403
126	0xbdf108c6	-0.117692515
127	0x3e12124f	0.14264797
128	0x3e0b6233	0.13611679
129	0xbdc7b68b	-0.09751614
130	0xbe0096e1	-0.12557556
131	0xbe3b012a	-0.18262163
132	0xbe2b44a8	-0.16725409
133	0x3d9bc4fc	0.07605931
134	0xbd7704aa	-0.060307182
135	0x3d2d8ac6	0.042368673
136	0xbdca8658	-0.09888905
137	0x3e07aad3	0.13248758
138	0xbb6a73e2	-0.0035774638
139	0x3d35d645	0.044393796
140	0x3d9ba9b9	0.076007314
141	0xbe16f093	-0.1474021
142	0x3dcdcd1e	0.100488886
143	0x3d8bdc6d	0.06829152
144	0xbe227ede	-0.15868708
145	0xbdfd2443	-0.12360432
146	0x3e400f51	0.18755843
147	0x3d98bb6f	0.07457625
148	0xbd5ab251	-0.053392712
149	0x3e05df12	0.13073376
150	0x3e4030ab	0.18768565
151	0x3e51a40a	0.20472732
152	0xbe083d8c	-0.13304728
153	0x3db74fb8	0.08950752
154	0x3d115311	0.03547961
155	0xbe30f7db	-0.1728205
156	0x3e14b2df	0.14521359
157	0x3ded943d	0.1160054
158	0x3e1b6f1d	0.15179105
159	0x3e100d1d	0.14067502
160	0xbcf5705b	-0.029960802
161	0xbbe661d9	-0.0070307073
162	0x3e2a102a	0.16607729
163	0x3d08c239	0.03338835
164	0x3d9d6b00	0.07686424
165	0x3ccb8e32	0.024848077
166	0xbd2fdd38	-0.04293558
167	0x3ddb65e8	0.107127964
168	0x3e0e140b	0.13874833
169	0x3dad8572	0.08472718
170	0xbd3913ac	-0.045184776
171	0x3e412893	0.18863134
172	0x3e1def50	0.15423322
173	0xbd14fd5a	-0.036374427
174	0x3d8a117d	0.06741617
175	0xbd71242d	-0.05887239
176	0x3db6864b	0.08912333
177	0x3d18fd91	0.037351195
178	0xbc0bc3a4	-0.008530531
179	0x3e2d6520	0.16933107
180	0xbe2ec7b5	-0.1706837
181	0x3d917057	0.07101505
182	0x3c8b6559	0.0170161
183	0x3cac5a0a	0.021039028
184	0x3d4f1a32	0.05056209
185	0x3d824ec8	0.063626826
186	0x3da5a3c7	0.08087879
187	0xbe27b43b	-0.16377346
188	0x3daf9b53	0.085745476
189	0xbc68b5f9	-0.014203542
190	0xbdacdf40	-0.08441019
191	0x3de9f264	0.114231855
192	0x3c4a54cf	0.0123493215
193	0x3c65733f	0.014004528
194	0x3e089ae9	0.13340344
195	0xbc7257a8	-0.014791407
196	0xbd707b3a	-0.058711268
197	0x3e3e8a03	0.18607335
198	0xbe2278c8	-0.15866387
199	0xbd7cd148	-0.061723024
200	0xbe0a74d5	-0.1352113
201	0x3dbf7f75	0.093504824
202	0xbd2c6da8	-0.042096764
203	0x3e409630	0.18807292
204	0xbd854e9e	-0.06509136
205	0xbd4c89f7	-0.04993626
206	0x3e4c6067	0.1995865
207	0xbe2ab6fa	-0.16671363
208	0xbd53e5ee	-0.05173295
209	0x3d434e09	0.047681842
210	0x3d81596b	0.06315883
211	0xbdf5172b	-0.119673096
212	0x3e0b3503	0.13594441
213	0x3d662e89	0.056196723
214	0x3d484ad1	0.048899475
215	0xbd39da1b	-0.045374017
216	0xbe1f6356	-0.15565237
217	0xbcb70257	-0.022339983
218	0xbd32652c	-0.043553516
219	0xbe3db3d8	-0.18525636
220	0x3e07057c	0.13185686
221	0xbdf5668a	-0.119824484
222	0x3de68a5a	0.11256857
223	0xbe51fcd4	-0.20506603
224	0xbdb1a719	-0.086744495
225	0x3d9cd1c0	0.07657194
226	0xbe20dd2d	-0.15709372
227	0xbba71fe4	-0.005100237
228	0xbe1a7311	-0.15082957
229	0xbd8f1a5c	-0.069874495
230	0xbe312693	-0.17299871
231	0xbe24d787	-0.16097842
232	0x3ba1d2cb	0.0049384586
233	0xbe4f60f4	-0.20251828
234	0xbc6dedb8	-0.014522009
235	0xbdacb2a5	-0.08432511
236	0xbd29bafb	-0.041438084
237	0x3e0c4a84	0.137003
238	0xbdaf4018	-0.08557147
239	0x3d906650	0.070507646
240	0x3d54083d	0.05176567
241	0x3e2775c7	0.16353522
242	0x3d9cc155	0.07654063
243	0xbe413311	-0.18867137
244	0xbe5caa77	-0.21549402
245	0xbe2a4c25	-0.1663061
246	0xbe29178e	-0.16512892
247	0x3d07b157	0.03312811
248	0xbe388beb	-0.18022124
249	0xbdc7f1d2	-0.097629204
250	0xbe3b96da	-0.18319264
251	0xbe1b8619	-0.15187873
252	0xbda75786	-0.08170991
253	0x3c90065b	0.017581156
254	0xbe3381f0	-0.17530036
255	0x3e178e4b	0.14800374

encoder.0.bias f4 [32]
0	0x3db2a142	0.08722164
1	0xbe5f9be3	-0.2183681
2	0x3d8e2c2d	0.069420196
3	0xbe867aac	-0.26265466
4	0xbdaf8b15	-0.0857145
5	0x3dbca35f	0.09210848
6	0x3cd92055	0.026504675
7	0x3e6ffc65	0.23436125
8	0xbce0bdb7	-0.027434213
9	0x3e1176bb	0.14205448
10	0x3e2aa94e	0.16666147
11	0xbd8616f0	-0.06547344
12	0x3e7b026a	0.2451264
13	0x3e292b22	0.1652036
14	0x3d9b1d66	0.07573967
15	0x3e2839f2	0.16428354
16	0xbdba70fc	-0.09103581
17	0x3e781ccb	0.24229734
18	0xbe069931	-0.13144375
19	0xbe736ff8	-0.23773181
20	0xbe44b3a3	-0.19209151
21	0xbe67c766	-0.22634658
22	0x3e40e588	0.18837559
23	0xbe265bf5	-0.16246016
24	0x3e6d0be9	0.23149075
25	0xbe02ea94	-0.12784797
26	0x3e8f860e	0.28031963
27	0x3c74b076	0.01493465
28	0xbe554325	-0.20826395
29	0x3dd74dc3	0.10512879
30	0xbe0a6c45	-0.13517864
31	0xbdc07199	-0.09396667

encoder.3.weight f4 [64, 32, 3, 3]
0	0x3cc47313	0.023980653
1	0x3cf0ad5b	0.029379537
2	0x3cca3960	0.024685562
3	0x3da4c492	0.08045305
4	0xbbc32bc9	-0.0059561473
5	0xbccdeb0b	-0.025136491
6	0x3d4793a3	0.04872478
7	0xbc415372	-0.01179968
8	0x3d07f41d	0.03319179
9	0xbd8350ad	-0.06411872
10	0xbe2edc18	-0.17076147
11	0xbd4ebf3c	-0.050475344
12	0xbe6787d7	-0.22610413
13	0xbe746ec3	-0.23870377
14	0xbd7d8015	-0.061889727
15	0xbe6d92e3	-0.23200564
16	0xbe864162	-0.26221758
17	0xbdeef2ac	-0.1166738
18	0x3d971e00	0.07378769
19	0xbd17061e	-0.03687107
20	0x3b5cffb0	0.0033721738
21	0xbc49b72a	-0.012311736
22	0x3cb211d3	0.021737015
23	0xbd0b6759	-0.034034107
24	0x3d2544de	0.04034888
25	0xbbe0311c	-0.006841792
26	0x3cb78751	0.022403391
27	0xbddee45d	-0.108834006
28	0xbe1a0c51	-0.15043761
29	0xbe2e9f4d	-0.17052956
30	0xbe12f047	-0.14349471
31	0xbe6f338d	-0.23359509
32	0xbe6cbc77	-0.23118769
33	0xbe56fbe1	-0.20994522
34	0xbe6723c7	-0.22572242
35	0xbe19a48d	-0.15004177
36	0xbd16fe2d	-0.036863495
37	0x3d222f03	0.039595615
38	0xbd274b66	-0.04084339
39	0x3d7ec1ee	0.062196665
40	0x3ccd34b9	0.025049554
41	0xbd823c1d	-0.06359122
42	0x3d290c08	0.04127124
43	0xbd2c0389	-0.04199556
44	0x3c241ccc	0.010016631
45	0x3cfd71c3	0.030938035
46	0xbb4d48a5	-0.0031323817
47	0x3d73764e	0.059438996
48	0xbd8b806b	-0.06811603
49	0xbd8377a8	-0.06419307
50	0x3d8fbab5	0.070180334
51	0xbd931621	-0.07181955
52	0xbd7cf410	-0.061756194
53	0x3dcb899c	0.09938356
54	0x3d90fd2f	0.07079541
55	0x3d57871f	0.052619096
56	0xbaf58c0c	-0.0018733754
57	0xbd135873	-0.035973024
58	0xbd861a0f	-0.06547939
59	0x3d70d419	0.058796022
60	0x3caa3400	0.020776749
61	0x3d14760a	0.036245383
62	0x3c60da14	0.013723869
63	0xbc948cb8	-0.018133506
64	0x3d82bcc8	0.063836634
65	0x3d2bacab	0.041912716
66	0xbdbd7851	-0.09251464
67	0xbb670e93	-0.003525649
68	0x3db123d8	0.08649415
69	0x3d2a3322	0.04155267
70	0xbc39ec0d	-0.011347783
71	0x3d4abcbc	0.049496397
72	0x3c6ade3b	0.01433521
73	0xbc57d0ff	-0.013172387
74	0xbd98f612	-0.07468809
75	0x3d8d8430	0.069099784
76	0x3d25a0d7	0.040436592
77	0xbd8b39c7	-0.067981295
78	0x3dab3349	0.08359391
79	0x3d7eef68	0.062240034
80	0xbccda357	-0.0251023
81	0x3d3f3544	0.046681657
82	0x3d4700d3	0.04858477
83	0xbd77a87b	-0.06046341
84	0x3c28c998	0.01030197
85	0x3d5a4080	0.05328417
86	0xbd86b3d8	-0.06577271
87	0x3d5892ab	0.05287425
88	0x3d806c9f	0.06270718
89	0x3bafe1c8	0.0053674914
90	0x3c459e46	0.012061661
91	0x3c905296	0.017617505
92	0xbd2ecdeb	-0.042676847
93	0x3d031144	0.031998888
94	0xbb053d78	-0.0020330828
95	0xbd8096a3	-0.06278732
96	0x3d16a075	0.036774117
97	0x3ce1595c	0.02750843
98	0xbcb49abd	-0.022046441
99	0x3cc74571	0.024325104
100	0x3d5e5a8b	0.054285567
101	0xbd8a62ab	-0.06757101
102	0x3c27f9f3	0.010252464
103	0xbd310809	-0.043220554
104	0xbd1b54a8	-0.03792253
105	0x3cd4a153	0.025955832
106	0x3d77721f	0.06041157
107	0xbda60a2d	-0.081074096
108	0x3d762a7c	0.06009911
109	0x3ce2afbf	0.027671693
110	0xbd2c3987	-0.04204705
111	0x3da66fdc	0.08126804
112	0xbcc8ffac	-0.024535976
113	0xbb9aab4f	-0.0047201286
114	0x3d8d1b81	0.068900116
115	0xbbb40b83	-0.0054945364
116	0xba0b0393	-0.0005302962
117	0x3d8e0f43	0.06936505
118	0x3d1bc1de	0.038026683
119	0x3d72e061	0.059296016
120	0x3ced1efe	0.028945442
121	0x3d8ba0f4	0.06817809
122	0x3c9d4427	0.019197537
123	0xbdcd18d9	-0.10014505
124	0xbd962726	-0.07331686
125	0x3c159ade	0.0091311615
126	0x3c2102cf	0.00982733
127	0x3d4b465d	0.04962765
128	0x3c4998b1	0.012304471
129	0x3d062ada	0.03275571
130	0x3d3ee0c1	0.04660106
131	0x3da87f6c	0.08227429
132	0x3d4188df	0.04724967
133	0xbcb42f99	-0.021995353
134	0x3d3a0b21	0.04542077
135	0x3dc02cb8	0.093835294
136	0x3d95da01	0.073169716
137	0x3d0846d7	0.033270683
138	0x3c85d2d3	0.01633588
139	0xbb2bcd84	-0.0026215026
140	0x3ca78272	0.020447943
141	0x3d9a45e2	0.0753286
142	0xbc7518be	-0.014959512
143	0x3cce7a20	0.025204718
144	0x3c75567b	0.014974232
145	0x3d0ee641	0.034887556
146	0x3d6c45a7	0.057683613
147	0xbd980caa	-0.074242905
148	0xbd84e8c2	-0.064897075
149	0x3d03d938	0.032189578
150	0xbdf05890	-0.11735642
151	0x3ce5b212	0.028039012
152	0x3d3125cc	0.043248937
153	0xbd56f5be	-0.05248045
154	0xbc85b3b4	-0.01632104
155	0xbb71b8d4	-0.0036883848
156	0x3b7e0cf9	0.0038765057
157	0xbd30333b	-0.043017607
158	0xbc939c0b	-0.018018743
159	0x3d8f0292	0.06982912
160	0xbd4e7be6	-0.050411128
161	0x3c9d46cc	0.019198798
162	0xbd0a853d	-0.033818472
163	0xbc3fbdec	-0.011702996
164	0xbdf8499a	-0.121234134
165	0x3c1f4c0c	0.009722721
166	0x3c14b26b	0.009075741
167	0xbd9fff1c	-0.0781233
168	0xbd1ffaec	-0.039057657
169	0x3c1448c4	0.009050552
170	0xbd9997f4	-0.07499686
171	0xbd80f580	-0.062968254
172	0xbb2075b3	-0.0024484217
173	0x3ce92526	0.028460097
174	0xbdcf1163	-0.10110738
175	0xbd326626	-0.043554448
176	0x3d903bce	0.07042657
177	0xbdacd6d0	-0.0843941
178	0x3cb74499	0.022371577
179	0x3de15d25	0.11004094
180	0xbc3f7508	-0.011685617
181	0x3c0c5bbe	0.008566795
182	0xbc55d5ca	-0.01305146
183	0x3cb3fa4c	0.021969937
184	0xbc564638	-0.013078265
185	0x3d0930ba	0.033493735
186	0xbcf838fa	-0.030300606
187	0xbc44f824	-0.012022052
188	0x3d394ce8	0.04523936
189	0x3d8d6436	0.06903879
190	0xbd71c187	-0.059022453
191	0xbb2c5d2d	-0.0026300654
192	0x3be38dfe	0.006944417
193	0x3c944f99	0.018104361
194	0xbd6bfccb	-0.05761413
195	0x3dc1dc0c	0.09465799
196	0x3d07be2c	0.033140346
197	0x3bfb3b91	0.007667013
198	0x3c51b43a	0.012799317
199	0xbda1983b	-0.07890364
200	0xbcf48af1	-0.029851409
201	0xbd2531a9	-0.040330563
202	0xbd89170d	-0.0669385
203	0xbdd551f9	-0.10416026
204	0xbc1150af	-0.008869334
205	0xbd890100	-0.06689644
206	0xbcd3e513	-0.025866067
207	0x3b48386f	0.0030551215
208	0x3d27b9e4	0.040948763
209	0x3bff0b4b	0.0077833286
210	0xbd12e20c	-0.035860106
211	0x3be98e2a	0.007127543
212	0x3cbe45d0	0.023226649
213	0xbcede71f	-0.029040871
214	0x3d459b9b	0.0482441
215	0x3dd4f569	0.10398371
216	0x3d642b51	0.055705372
217	0x3c90d8d9	0.017681526
218	0x3d19799e	0.0374695
219	0x3d81d843	0.06340077
220	0xbc396e26	-0.011317765
221	0xbcce7ae5	-0.025205085
222	0x3d7c4b96	0.061595522
223	0xbd0498db	-0.032372337
224	0xbd55cde5	-0.05219831
225	0xbd0ea63a	-0.034826495
226	0xbd305704	-0.043051735
227	0xbdc49400	-0.09598541
228	0xbcbf8890	-0.023380548
229	0x3d3d88f2	0.04627318
230	0xbd55c58f	-0.05219036
231	0x3d1d5751	0.03841335
232	0x3c4a23e7	0.012337661
233	0x3cb16792	0.021655831
234	0xbcd3fbdf	-0.025876937
235	0x3d0be32b	0.03415219
236	0xbc9db803	-0.019252783
237	0x3d210c71	0.039318506
238	0x3c571d99	0.013129615
239	0x3d049bf4	0.03237529
240	0x3c2651cd	0.010151339
241	0x3d7ebcae	0.062191658
242	0xbd2868a4	-0.041115418
243	0x3d4cf4b9	0.050038073
244	0xba9b60df	-0.0011854431
245	0xbd7e7522	-0.062123425
246	0x3d58e4d8	0.052952617
247	0x3c94549b	0.01810675
248	0xbd85a837	-0.06526225
249	0x3d9f4432	0.07776679
250	0x3d731fa3	0.059356343
251	0x3ca48784	0.02008415
252	0x3df48ecb	0.11941298
253	0xbbd215b7	-0.00641128
254	0xba5ff2cc	-0.00085429545
255	0x3bea5d83	0.0071522607

encoder.3.bias f4 [64]
0	0x3cad1676	0.021128874
1	0x3ae42fc5	0.0017409256
2	0xbd148fbe	-0.036269896
3	0x3d94d94d	0.07268009
4	0x3cfc38c1	0.030788781
5	0xbc9a1eb2	-0.018813465
6	0xba109364	-0.0005515127
7	0x3db4a657	0.08820789
8	0xbd851605	-0.064983405
9	0x3dd1d1b1	0.102450736
10	0x3c83b941	0.016079547
11	0x3de311ee	0.11087404
12	0x3d527180	0.051377773
13	0x3d06feb4	0.032957748
14	0xbd2a3211	-0.041551653
15	0xbcd6e64d	-0.026232863
16	0xbd717f94	-0.05895956
17	0x3d6f1b98	0.058375925
18	0xbb01241f	-0.0019705368
19	0x3cd1e4f1	0.025621863
20	0x3dd37236	0.103245184
21	0xbbff3f50	-0.00778953
22	0x3e2097db	0.15682928
23	0x3ada0e58	0.0016636355
24	0x3da5320d	0.08066187
25	0x3dca2de3	0.098720334
26	0xbc4421f6	-0.011970988
27	0x3d0c6226	0.03427329
28	0x3d4010b4	0.04689093
29	0x3d9942e2	0.0748346
30	0x3d262890	0.040566027
31	0xbd336348	-0.043795854
32	0x3c5b263c	0.013375815
33	0xbadbd9a2	-0.0016773234
34	0xbcfb2094	-0.030655183
35	0x3dc630aa	0.09677251
36	0xbdba7ef4	-0.09106246
37	0xbc32bd77	-0.01090943
38	0x3d140608	0.036138564
39	0x3d977e13	0.073970936
40	0x3bad8e96	0.0052965386
41	0xbd81a8b9	-0.063310094
42	0x3d0a09b5	0.033700664
43	0xbc8ef525	-0.017450878
44	0x3d0a455d	0.033757556
45	0x3ddcf908	0.107896864
46	0xbca2b896	-0.019863408
47	0x3cb87259	0.022515463
48	0xbd0de631	-0.034643356
49	0x3b0da367	0.0021612288
50	0xbdb2cd07	-0.08730512
51	0x3db9e9aa	0.09077771
52	0x3decf1bc	0.11569545
53	0xbdc1e3da	-0.09467287
54	0x3c2d8068	0.0105896965
55	0xbca8efc2	-0.020622138
56	0xbd8a7e0f	-0.06762325
57	0xbd51e7fd	-0.051246632
58	0x3dc22ccc	0.094812006
59	0xbd66717a	-0.056260563
60	0xbb254502	-0.0025218134
61	0x3c0381b8	0.008026533
62	0xbcd3d869	-0.025860028
63	0x3d1e19a8	0.038598686

encoder.6.weight f4 [128, 64, 3, 3]
0	0xbc41c293	-0.011826175
1	0xbd098807	-0.03357699
2	0x3becb841	0.007224113
3	0xbc08b64f	-0.008344247
4	0xbd3b9a3e	-0.045801394
5	0x3adb6fc3	0.0016741682
6	0xbbeb6039	-0.0071831015
7	0x3c439e35	0.011939575
8	0x3cd58f7f	0.0260694
9	0x3c970ca0	0.018438637
10	0xbd0ef452	-0.03490097
11	0xbcf760e5	-0.03019757
12	0xbc31cc0d	-0.010851872
13	0xbd0d1594	-0.034444407
14	0xbc82114e	-0.015877392
15	0x3c83a7c8	0.016071215
16	0xbbb9497b	-0.0056545115
17	0x3cdb2582	0.026751284
18	0x3a7ad761	0.0009568837
19	0xbce65895	-0.028118411
20	0x3ce13763	0.02749223
21	0xbc19ad9c	-0.009379771
22	0x3c44290e	0.011972679
23	0xbd2e2c01	-0.042522434
24	0xbd113663	-0.035452258
25	0x3b966b63	0.004590438
26	0x3cab4d9e	0.020911034
27	0x3cd686a7	0.026187254
28	0xbc876c5a	-0.016531158
29	0xbd13be9a	-0.036070444
30	0x3968ec7c	0.00022213341
31	0x3d074852	0.033027954
32	0xbd0810bb	-0.03321908
33	0xbd374e43	-0.04475237
34	0xbd30ac9e	-0.04313337
35	0xbc72a983	-0.014810923
36	0xbcae4b35	-0.021276096
37	0x3cc1455f	0.023592649
38	0x3c3f2eef	0.011668905
39	0xbd0b5e71	-0.034025613
40	0x3d227160	0.039658904
41	0x3c92ac9a	0.017904568
42	0xbcadc217	-0.021210713
43	0x3c7f4f40	0.0155828595
44	0xbd0d3bb8	-0.03448078
45	0xbcda94c2	-0.026682261
46	0xbd051807	-0.032493617
47	0xbcfeaec3	-0.031089192
48	0xbcc1bd43	-0.023649817
49	0xbd2c529d	-0.042070974
50	0xbc1d4b4a	-0.00960047
51	0x3d165840	0.036705256
52	0xbcc126f7	-0.02357815
53	0x3cec4b9f	0.028844653
54	0xbba156c7	-0.0049236747
55	0x3d12a86c	0.03580515
56	0xbb44b839	-0.0030017032
57	0xbca4f2b1	-0.020135256
58	0x3c0b5d51	0.008506135
59	0x3bb33e81	0.0054700975
60	0xba92a668	-0.0011188509
61	0xbb1aa189	-0.0023594818
62	0xbc944484	-0.018099077
63	0xbd1a55c5	-0.037679452
64	0x3cea1d08	0.028578296
65	0xbd243c39	-0.040096495
66	0xbd187289	-0.037218604
67	0xbd1f803a	-0.038940646
68	0x3bf036e8	0.007330764
69	0xbc3fea69	-0.011713603
70	0xbcb5aeb7	-0.022178037
71	0xbb48ad45	-0.0030620855
72	0xbcf36206	-0.029709827
73	0xbd447415	-0.047962267
74	0x3ba0b154	0.0049039517
75	0xbc4b1340	-0.012394726
76	0x3b985308	0.00464857
77	0x3c4843d1	0.0122232
78	0x3ca4751a	0.02007537
79	0xbaaf1676	-0.0013358134
80	0xbc4cb11b	-0.012493397
81	0x3cd68b51	0.026189478
82	0xbc942a15	-0.018086473
83	0xbd44fa42	-0.048090227
84	0x3cb9f8fb	0.022701731
85	0x3ca76eca	0.02043857
86	0x3ca89914	0.020580806
87	0xbcbd6f51	-0.023124369
88	0xbb6b25fc	-0.0035880795
89	0xbd17eabe	-0.037089102
90	0xbcdee6ad	-0.027209604
91	0x3cf6df6b	0.03013583
92	0xbd2162d3	-0.039400887
93	0xbcb93453	-0.022607958
94	0xbc87c0c6	-0.016571414
95	0x3c9d724a	0.019219536
96	0xbd1fd965	-0.039025683
97	0xba3e715a	-0.00072648155
98	0xbd463477	-0.048389878
99	0xbd1a96d7	-0.03774151
100	0x3d063d49	0.03277329
101	0x3c604436	0.013688138
102	0xbc8ff4c8	-0.017572775
103	0xbcb015fe	-0.021494862
104	0x3cdfc0d6	0.027313631
105	0x3d0b554c	0.034016892
106	0xbd47405d	-0.048645366
107	0x3c3294e1	0.010899753
108	0x3c0a9afe	0.008459805
109	0xbd467e34	-0.0484602
110	0xbc8d296c	-0.017231666
111	0xbc548167	-0.012970305
112	0xbb03da4d	-0.002011913
113	0x3c298646	0.010346955
114	0xbd4870cb	-0.048935693
115	0xbd44d7c7	-0.048057344
116	0xbd070c30	-0.032970607
117	0xb9a21e64	-0.0003092169
118	0x3b0dc186	0.0021630242
119	0x3c01a758	0.007913433
120	0xbabee742	-0.001456477
121	0xbd0b41dc	-0.033998355
122	0x3ccebcc9	0.025236504
123	0xbc9b1e2b	-0.018935284
124	0x3cecabd5	0.02889053
125	0x3cee86ab	0.029116949
126	0x3bf560d9	0.007488352
127	0x3ac94530	0.0015355702
128	0xbd3d8d78	-0.046277493
129	0x3b1e32b1	0.00241391
130	0x3c8104a2	0.01574928
131	0xbd0d7d81	-0.034543518
132	0x3cd11e75	0.025527218
133	0xbcfca5ab	-0.030840715
134	0x3ce4b5b5	0.027918676
135	0xba5a659f	-0.0008331183
136	0xbad778c2	-0.0016439187
137	0x3d0d0bba	0.03443501
138	0xbc4bd2ea	-0.012440423
139	0xbc38b38d	-0.011273277
140	0x3bbbce53	0.005731383
141	0x3b601c14	0.0034196423
142	0x3d051449	0.03249005
143	0x3c98d36d	0.018655503
144	0xbcabe767	-0.020984365
145	0x3cc8b805	0.02450181
146	0x3c8bb8d5	0.017055908
147	0x3d00f989	0.031487975
148	0x3d0113ef	0.03151315
149	0x3ca3d371	0.019998284
150	0x3b5f2d95	0.0034054269
151	0xbb286903	-0.0025697357
152	0x3bc19607	0.005907777
153	0xbcb99219	-0.022652673
154	0xbc9ba3bf	-0.018998979
155	0xbcc3af8d	-0.02388742
156	0xbb8d854d	-0.004318869
157	0xbc816c8b	-0.015798828
158	0x3ca08f9e	0.019599732
159	0x3cfdcd22	0.030981604
160	0x3b749a63	0.0037323467
161	0x3c2fb524	0.01072434
162	0x3c1b760b	0.009488593
163	0x3c65f4d7	0.014035425
164	0x3cce1359	0.02515571
165	0xbd068751	-0.03284389
166	0xbd42a06b	-0.047516268
167	0xbcb9925c	-0.022652797
168	0x3cf53b85	0.029935608
169	0xba9e3e50	-0.0012073014
170	0xbc4cbdab	-0.012496392
171	0xbcd4fedf	-0.026000438
172	0xbd2bb7b8	-0.041923255
173	0x3cc4fe79	0.024047123
174	0x3bcc443e	0.006233721
175	0xbcb8bb17	-0.022550149
176	0xbc7e9a84	-0.015539769
177	0xbd4a9a1f	-0.049463388
178	0xbbf396df	-0.0074337567
179	0xbd2ff03b	-0.04295371
180	0xbc0f9c2d	-0.008765263
181	0xbcc8fea4	-0.024535485
182	0xbc35cdfd	-0.011096475
183	0xbd219b2d	-0.039454628
184	0x3cac9d97	0.021071238
185	0x3be7e93e	0.007077365
186	0x3c992fc7	0.01869954
187	0x3ca25bbc	0.019819133
188	0xbd4ee523	-0.05051149
189	0x3d2d7d5b	0.042355876
190	0xbc1ec2df	-0.009690016
191	0xbc939e52	-0.018019829
192	0xbc161fa7	-0.00916282
193	0xbd0c44b6	-0.034245215
194	0xbd475d24	-0.04867281
195	0x3ac3e7bd	0.0014946383
196	0xbc1250ff	-0.008930444
197	0xbb4d1117	-0.0031290704
198	0x3c1b0652	0.009461956
199	0x3ca7b8b3	0.020473814
200	0x3b5e9650	0.0033964105
201	0x3cef9617	0.029246373
202	0xbd44333d	-0.047900427
203	0x3cff74d4	0.031183638
204	0xbb3de20c	-0.0028973846
205	0xbcc93512	-0.024561439
206	0xbbb19faa	-0.005420645
207	0xbc292fd1	-0.010326342
208	0xbb033a30	-0.0020023696
209	0x3cd24001	0.025665285
210	0x3c99b3e6	0.01876254
211	0x3c925fac	0.017867886
212	0x3cba2d0c	0.022726558
213	0xbc7238f1	-0.014784084
214	0x3c250b65	0.010073517
215	0x3cbb9945	0.022900233
216	0xbd1960a9	-0.037445698
217	0x3ccb810f	0.024841813
218	0xbcfa39de	-0.030545171
219	0x3c8a31ef	0.016869513
220	0xbcb1db68	-0.021711066
221	0xbc96ca2e	-0.018406954
222	0x3c91cba8	0.017797306
223	0xbcbff90a	-0.02343418
224	0x3c83508c	0.016029619
225	0x3d076c43	0.03306223
226	0x3be2d3f2	0.0069222385
227	0xbd02a0d2	-0.03189165
228	0xbbea65ef	-0.0071532647
229	0xbcf644f5	-0.030062178
230	0x3cf49f64	0.02986116
231	0x3cfedacb	0.031110188
232	0xbc42e72e	-0.011895938
233	0xbd421cdf	-0.047390815
234	0xbca96166	-0.020676326
235	0xbd0fe00b	-0.035125773
236	0x3bdb8d75	0.0067002126
237	0x3cb30b2d	0.021855915
238	0x3d099397	0.03358802
239	0xbd49cf74	-0.04927011
240	0xbd3fa4e6	-0.04678812
241	0x3cedc780	0.029025793
242	0xbd3127a1	-0.043250684
243	0xbbb0dc6d	-0.0053973706
244	0x3cb7a4d9	0.022417473
245	0xbd06cd41	-0.03291059
246	0x3cce9482	0.025217298
247	0xbc20f4f3	-0.009824025
248	0xbd2119c0	-0.039331198
249	0x3ce2887d	0.027652973
250	0x3b39b39d	0.0028335818
251	0x3ba53389	0.005041544
252	0x3beadfcc	0.007167792
253	0xbbef8aad	-0.0073102326
254	0x3c45f819	0.012083077
255	0xbd0a3646	-0.033743165

encoder.6.bias f4 [128]
0	0xbd01695c	-0.03159462
1	0xbd239faf	-0.039947208
2	0xbd0ac96c	-0.033883497
3	0x3c59dfe3	0.013298008
4	0xbd26e47f	-0.040745255
5	0x3daa5f8d	0.08319006
6	0x3dec9188	0.115511954
7	0x3d1f2288	0.03885129
8	0x3d1e2f77	0.038619485
9	0x3d96d1d5	0.07364241
10	0x3d3186a4	0.043341294
11	0xbd02a41f	-0.0318948
12	0x3d52c383	0.051455986
13	0xbb481a9a	-0.0030533434
14	0x3cb398b0	0.021923393
15	0x3c1d16bc	0.00958794
16	0x3d9e76e4	0.0773752
17	0x3d7050dc	0.058670864
18	0xbce61c13	-0.028089559
19	0x3d8c7f1f	0.06860184
20	0xbd0fee67	-0.035139468
21	0x3ce83265	0.028344342
22	0xbd122eaa	-0.035689034
23	0x3cd16640	0.025561452
24	0x3d41f642	0.04735399
25	0xbda0c45a	-0.07849951
26	0x3d3af9d2	0.045648403
27	0xbb51e381	-0.0032026472
28	0x3d82a56f	0.0637921
29	0x3d46faf0	0.048579156
30	0x3c22353f	0.00990039
31	0x3d4642d7	0.048403587
32	0x3d04df96	0.03243979
33	0x3bbdbd78	0.0057904087
34	0x3d37db4c	0.044886872
35	0x3d234b01	0.03986645
36	0x3aa39c8b	0.0012482567
37	0x3ccd9085	0.025093326
38	0x3ce11bd8	0.027479097
39	0x3ce8eb6a	0.028432567
40	0xbe03a7db	-0.12857
41	0x3d42f9c7	0.047601487
42	0x3bb57f7e	0.00553888
43	0xbd67d348	-0.056597978
44	0xbd2f46f2	-0.042792268
45	0x3c68812c	0.014190953
46	0x3cd4ed79	0.025992142
47	0x3c1bbe20	0.009505779
48	0xbcc1ea4d	-0.023671294
49	0x3d0caac1	0.03434253
50	0x3b9b558a	0.0047404217
51	0x3cec7bbc	0.028867595
52	0x3d1bc773	0.038032006
53	0x3c560d93	0.01306476
54	0x3d92de69	0.071713276
55	0x3d2a7096	0.041611277
56	0xbdae6044	-0.08514455
57	0x3cec2c5b	0.028829744
58	0x3df028ec	0.11726555
59	0x3d5f1025	0.054458756
60	0x3d0d65c7	0.03452089
61	0x3ca290e4	0.01984448
62	0x3d047195	0.032334883
63	0x3db2add5	0.08724562
64	0xbd76b119	-0.060227487
65	0x3d9200d4	0.07129064
66	0x3c747a51	0.014921741
67	0xbcc0f717	-0.023555322
68	0xbc3df0bf	-0.011593043
69	0x3cc64797	0.024204059
70	0xbd21a834	-0.03946705
71	0xbcfe5f31	-0.03105125
72	0xbdc181bd	-0.09448574
73	0x3d737aeb	0.059443396
74	0x3d91e4b5	0.071237005
75	0xbb8d156f	-0.0043055336
76	0xbc9deb85	-0.019277344
77	0xbc7a5616	-0.015279314
78	0xbc99aa69	-0.018758016
79	0xbc9b8f9e	-0.01898938
80	0xbd16bc58	-0.036800712
81	0x3d8c1229	0.06839401
82	0xbb7a2888	-0.003817113
83	0xbc84004a	-0.01611342
84	0x3d0a2c69	0.03373376
85	0x3d62fa89	0.05541471
86	0x3cb642c0	0.022248626
87	0x3ac0ed6b	0.0014719194
88	0x3ca54f5a	0.02017944
89	0xbd00a2dd	-0.03140532
90	0x3db0a874	0.0862588
91	0x3d833ff8	0.064086854
92	0x3c60959a	0.013707543
93	0x3d596848	0.053077966
94	0x3d70f47c	0.05882691
95	0x3d29a8e9	0.04142085
96	0x3d3e64c4	0.046482816
97	0x3d540bfb	0.051769238
98	0x3d5e5959	0.054284427
99	0x3c9aaf1a	0.018882323
100	0x3dacc8ca	0.08436735
101	0x3d7462c7	0.059664514
102	0xbd05a882	-0.032631405
103	0x3d004d46	0.031323694
104	0xbc9ff35c	-0.019525222
105	0xbd76ddd1	-0.060270134
106	0xbc04a733	-0.008096504
107	0xbd9e306c	-0.077240795
108	0xbb8faec3	-0.004384847
109	0xbd40a0b8	-0.047028273
110	0xbd2936bc	-0.041311964
111	0x3d924209	0.071415015
112	0x3c9e8111	0.019348653
113	0xbd64d82a	-0.055870213
114	0x3da986ab	0.08277639
115	0x3c98b10b	0.018639108
116	0x3d1a5bbc	0.03768514
117	0xbd015a0e	-0.031580023
118	0xbd3b99ce	-0.045800976
119	0xbd32b89d	-0.043633092
120	0x3d7ccb7a	0.061717488
121	0xbd365af1	-0.044520322
122	0x3d3d26c7	0.04617956
123	0x3d262906	0.040566467
124	0x3c2fdaf9	0.0107333595
125	0xbdd0e9ce	-0.10200845
126	0xbbe5d131	-0.007013463
127	0xbb2adc13	-0.0026071116

decoder.0.weight f4 [128, 64, 2, 2]
0	0x3d2237f6	0.03960415
1	0x3d1d7ac2	0.03844715
2	0xbc39d52c	-0.011342328
3	0x3ce83667	0.028346254
4	0xbd7c2d1e	-0.061566465
5	0xbc6f3add	-0.014601436
6	0x3cdedd66	0.02720518
7	0xbc1aa261	-0.009438128
8	0x3d9129ed	0.07088075
9	0xbd11b762	-0.035575278
10	0xbd385271	-0.045000497
11	0xbcd93cd4	-0.026518263
12	0xbc8efc11	-0.017454179
13	0xbc1cd01b	-0.009571101
14	0x3d2cfc28	0.042232662
15	0xbc7ce875	-0.015436281
16	0x3d50b45a	0.050953247
17	0xbd6d5ff7	-0.057952847
18	0xbcb4fcf0	-0.022093266
19	0x3d23232d	0.039828468
20	0x3c0ef7b1	0.008726046
21	0x3d6acf3c	0.05732654
22	0xbd4f9002	-0.050674446
23	0x3cd60c8c	0.02612903
24	0x3d50fba6	0.05102124
25	0xbd7eef0c	-0.06223969
26	0x3d14bb75	0.036311585
27	0x3c831160	0.015999496
28	0xbaba05c6	-0.0014192394
29	0x3cf39637	0.029734714
30	0x3c245329	0.010029593
31	0xbd2b7a49	-0.041864667
32	0x3d32cf59	0.043654773
33	0xbcb4d58d	-0.022074485
34	0xbce1f672	-0.027583335
35	0xbc42caab	-0.01188914
36	0xbbc88ef0	-0.006120555
37	0xbd4b2632	-0.049596973
38	0x3d746176	0.05966326
39	0x3c9f250b	0.019426843
40	0x3d58a400	0.052890778
41	0x3d4fbec7	0.05071905
42	0xbc3fb0d7	-0.011699877
43	0x3c809be8	0.015699342
44	0xbcee16e2	-0.029063646
45	0xbd1a0974	-0.03760667
46	0xbcc05fd3	-0.023483193
47	0xbc71e50b	-0.014764081
48	0xbcfc74bc	-0.030817382
49	0xbd313c3f	-0.043270346
50	0x3c1dd1b0	0.009632513
51	0xbd3bfde8	-0.04589644
52	0x3cd81a77	0.026379807
53	0xbd555dd2	-0.052091427
54	0xbc4e2669	-0.0125824
55	0xba90afc0	-0.0011038706
56	0xbcc0a51f	-0.023516236
57	0x3be88a8c	0.007096594
58	0xbd6842d6	-0.056704365
59	0xbd57392f	-0.05254477
60	0x3cbe5cc0	0.023237586
61	0x3c5f7227	0.013638056
62	0xbd1b6b8a	-0.037944354
63	0x3d79d22a	0.060991444
64	0x3d130832	0.035896488
65	0xbd2cdd68	-0.042203337
66	0xbc82893c	-0.01593458
67	0x3b6484a0	0.003486909
68	0xbbcaa0fd	-0.006183742
69	0xbd416256	-0.04721292
70	0xbcd325a6	-0.025774788
71	0x3cc06d79	0.0234897
72	0x3cfca17c	0.03083872
73	0x3d67479a	0.05646477
74	0x3d13fb8f	0.036128577
75	0x3c9b475b	0.018954923
76	0xbc9b1978	-0.018933043
77	0xbd1bc67e	-0.038031094
78	0x3d260ca7	0.04053941
79	0xbd0b804c	-0.0340579
80	0x3bd8b400	0.0066132545
81	0xbba17fa0	-0.004928544
82	0xbcf91692	-0.03040627
83	0x3c934f3b	0.017982116
84	0xbd2cbe7b	-0.042173844
85	0x3d2406a3	0.04004539
86	0xbd6a7eb0	-0.057249725
87	0xbd8c65ce	-0.06855355
88	0x3bff230b	0.00778616
89	0xbc149fdc	-0.009071317
90	0x3d48feed	0.04907124
91	0xbc1746ce	-0.00923319
92	0xbd40713d	-0.046982992
93	0x3d277780	0.04088545
94	0xbd296163	-0.04135264
95	0x3d789585	0.060689468
96	0xbd6503d0	-0.05591184
97	0xbd4d3142	-0.050095804
98	0xbcd45b94	-0.025922574
99	0x3d06223c	0.032747492
100	0x3d0a74bb	0.03380273
101	0x3cfb32c4	0.030663855
102	0x3c86d802	0.016460422
103	0xbd0d6ad7	-0.03452572
104	0xbd6f9832	-0.058494754
105	0x3d7dd211	0.061967913
106	0xbcbaf8b0	-0.022823662
107	0x3c5a5880	0.013326764
108	0xbd1fba28	-0.03899589
109	0xbd5af2d5	-0.05345424
110	0x3c35f6ba	0.0111061875
111	0x3aa5d2b0	0.0012651291
112	0xbcb4df5c	-0.022079162
113	0xbc184802	-0.009294512
114	0x3cfda5f3	0.03096292
115	0xbcdb807b	-0.026794663
116	0xbd64aae0	-0.05582702
117	0xbd6cf186	-0.057847522
118	0xbd6e26d2	-0.05814249
119	0x3c5106d0	0.012757972
120	0x3c5af7d4	0.013364751
121	0xbb97bb6d	-0.004630497
122	0x3bafcde0	0.0053651184
123	0xbc26bdd2	-0.010177093
124	0xbd73314b	-0.05937318
125	0xbd646707	-0.055762317
126	0x3c5c17af	0.013433381
127	0xbd34a2ad	-0.044100452
128	0x3d79df05	0.061003704
129	0xbd1f7132	-0.03892631
130	0xbced4ef1	-0.028968306
131	0xbc3c4936	-0.011492064
132	0x3c575365	0.013142441
133	0xbd2dc972	-0.04242844
134	0xbc3761ee	-0.011192782
135	0xbd1a65c0	-0.037694693
136	0xbd7836d7	-0.060599174
137	0x3bdd3bcb	0.0067515126
138	0xbd4af48c	-0.049549624
139	0xbd3a7e05	-0.045530338
140	0xbc850679	-0.016238438
141	0x3ca302c3	0.019898778
142	0xbcfb0c6b	-0.03064557
143	0x3c8af7f3	0.016963935
144	0xbd532428	-0.051548153
145	0x3cf9b0fc	0.0304799
146	0xbd251100	-0.040299416
147	0x3d0d3f0c	0.034483954
148	0xbc7fdfc9	-0.015617319
149	0xbcee9984	-0.029125936
150	0x3d0b3586	0.03398659
151	0xbd4fdd41	-0.050748114
152	0x3c908778	0.017642722
153	0xbd1ecb86	-0.038768314
154	0xbb229ea0	-0.0024813786
155	0x3d6be0ea	0.05758754
156	0x3c5be664	0.013421629
157	0xbc0670bf	-0.008205592
158	0xbd3ef48d	-0.04661994
159	0x3d2e4243	0.04254366
160	0x3cbf9535	0.023386577
161	0x3cfaf249	0.030633109
162	0xbcbc2dd4	-0.022971071
163	0x3d6aa29b	0.05728398
164	0x3c022480	0.007943273
165	0xbc7a50c1	-0.015278042
166	0xbc482a69	-0.012217143
167	0xbd828fa1	-0.06375051
168	0x3d2a74e5	0.041615386
169	0x3c47e42e	0.012200398
170	0xbc6ce0f0	-0.014457926
171	0x3cb9c5b2	0.022677276
172	0xbc317537	-0.010831169
173	0x3c1a7ace	0.009428693
174	0x3d40bddc	0.047056064
175	0xbd236cf0	-0.039898813
176	0xbc3d7265	-0.011562918
177	0xbc22bb41	-0.00993234
178	0xbc6554ed	-0.013997299
179	0xbc976e41	-0.01848519
180	0x3cc7cf8c	0.024390958
181	0xbd768929	-0.0601894
182	0xbd68e094	-0.0568548
183	0x3d281304	0.04103376
184	0x3bcf5303	0.0063270344
185	0x3d67c2cc	0.056582257
186	0xbd524fba	-0.051345564
187	0x3c6aab25	0.014323031
188	0xbd25b3ba	-0.040454604
189	0xbd1a0f36	-0.037612163
190	0x3d30e868	0.04319039
191	0xbcd92d9b	-0.026511004
192	0xbcb2a638	-0.021807775
193	0xbb886450	-0.004162349
194	0x3d0e0026	0.03466811
195	0xbcd6e507	-0.026232256
196	0xbc8cc753	-0.017184889
197	0x3d27c7cd	0.04096203
198	0x3d2b2127	0.041779663
199	0x3d1ef906	0.038811706
200	0xbd457c52	-0.048214264
201	0xbc710485	-0.01471055
202	0x3d26e3ac	0.04074447
203	0x3c9ab3e7	0.018884612
204	0xbccb346b	-0.024805268
205	0x3a9df42b	0.0012050917
206	0xbc4e1d15	-0.012580176
207	0x3b07bc40	0.002071157
208	0xbce6e80d	-0.028186822
209	0xbae168bf	-0.0017197354
210	0xbd869360	-0.06571078
211	0xbcdf1578	-0.027231917
212	0x3bfdc3ec	0.007744303
213	0xbd45bccc	-0.048275754
214	0x3b4406e4	0.0029911334
215	0xbd69f733	-0.057120513
216	0xbbb01cb0	-0.0053745136
217	0xbd4b0eb2	-0.04957456
218	0xbc353c48	-0.011061735
219	0x3c9f2410	0.019426376
220	0x3befdf16	0.007320295
221	0xbd4f79b1	-0.050653163
222	0x3c09637d	0.008385536
223	0xbc1f2cf8	-0.009715311
224	0x3ca63e86	0.020293485
225	0x3d3e283c	0.04642509
226	0x3d9235ee	0.071391925
227	0x39e53351	0.00043716517
228	0x3b99f2e0	0.0046981424
229	0xbd8072a0	-0.06271863
230	0xbd57d6ec	-0.0526952
231	0xbd7f7914	-0.06237133
232	0x3cf04cc6	0.029333483
233	0x3d20a890	0.039223254
234	0xbd359f80	-0.044341564
235	0x3cd6285e	0.026142295
236	0x3d0ec08c	0.034851596
237	0xbc85575c	-0.016277008
238	0x3c1f5b11	0.009726302
239	0x3d3beab7	0.04587814
240	0xbd108e1d	-0.03529178
241	0xbcb05138	-0.021523103
242	0x3d25f730	0.04051894
243	0x3c72e47a	0.014824981
244	0xbd686956	-0.05674108
245	0x3d0db694	0.03459795
246	0x3d7b780a	0.061393775
247	0xbb088ad3	-0.0020834699
248	0xbd2f7ccd	-0.04284363
249	0x3d1971fa	0.037462212
250	0xbca05fe9	-0.019576984
251	0x3ac474eb	0.0014988458
252	0x3c545fa9	0.01296226
253	0x3c231fbe	0.009956298
254	0xbcb2398f	-0.021755962
255	0x3d63f50f	0.055653628

decoder.0.bias f4 [64]
0	0x3d2041c3	0.039125215
1	0x3d9a333c	0.075293034
2	0x3d3a2a3e	0.04545044
3	0xbc6db139	-0.014507585
4	0xbc114ad3	-0.008867937
5	0xbd613ca4	-0.054989472
6	0xbd321996	-0.043481432
7	0xbaa55424	-0.0012613577
8	0x3cb3babe	0.021939632
9	0xbd432d1e	-0.04765045
10	0xbd25e984	-0.0405059
11	0x3c42e870	0.011896238
12	0xbc2456e0	-0.010030478
13	0xbd997ef4	-0.074949175
14	0xbcbaf564	-0.02282209
15	0xbd63d5ae	-0.055623703
16	0xbd5a71b3	-0.05333109
17	0x3b7c0208	0.003845336
18	0xbd101ab0	-0.0351817
19	0x3c8d9d8e	0.017287042
20	0x3c4e51cf	0.012592747
21	0x3d6599ad	0.05605476
22	0xbcc34135	-0.023834804
23	0x3c990622	0.018679682
24	0xbd1756c5	-0.036947984
25	0xbc76ee91	-0.015071527
26	0xbdf3e60e	-0.11909114
27	0x3d130e35	0.03590222
28	0x3c833f9b	0.01602154
29	0xbb9a752e	-0.004713676
30	0xbb92beaf	-0.0044782977
31	0xbd276c84	-0.040874973
32	0xbb122978	-0.002230255
33	0x3d77b576	0.06047579
34	0xbd04b969	-0.032403383
35	0x3d74ddec	0.059781954
36	0xbc956e89	-0.018241184
37	0x3c7be650	0.015374735
38	0xbd5364ab	-0.051609676
39	0x3d213f97	0.039367285
40	0x3da18e12	0.07888426
41	0x3cecacf0	0.028891057
42	0x3b2068af	0.0024476459
43	0x3da4968c	0.08036527
44	0xbde97eee	-0.11401163
45	0xbd6af430	-0.05736178
46	0x3d0f0c5e	0.034923904
47	0xbc386a64	-0.011255834
48	0x3d26731b	0.040637117
49	0x3cb5f985	0.022213707
50	0x3c60eddc	0.013728585
51	0xbd84ace5	-0.064782895
52	0xbcff404f	-0.031158594
53	0x3c89ba69	0.01681252
54	0xbd4d69ed	-0.050149847
55	0xbd8e1092	-0.06936754
56	0x3b23972e	0.0024961936
57	0xbcdae4ff	-0.026720522
58	0x39a1fb63	0.0003089561
59	0x3c60fc50	0.013732031
60	0xbcce1a27	-0.025158955
61	0x3c697580	0.014249206
62	0x3bb0accd	0.005391693
63	0x3bf04dc8	0.007333491

decoder.2.weight f4 [64, 32, 2, 2]
0	0x3cd1bb77	0.025602086
1	0xbc9b043f	-0.018922923
2	0x3d4c0bb8	0.049815863
3	0xbd50030b	-0.050784152
4	0x3db1ade9	0.08675749
5	0x3da935de	0.082622275
6	0x3e2603d9	0.16212405
7	0x3d9bb64b	0.07603129
8	0xbd2519b5	-0.04030772
9	0x3ceaf973	0.0286834
10	0xbd0a73e3	-0.033801924
11	0xbd7b860e	-0.06140714
12	0xbd8a6200	-0.06756973
13	0x3d29d51f	0.041463014
14	0xbda1ad20	-0.07894349
15	0x3d8f00b8	0.06982559
16	0xbd8b6b6e	-0.068076
17	0x3d894201	0.06702042
18	0xbd61ba96	-0.055109583
19	0x3dcb8af2	0.09938611
20	0xbd7ccc73	-0.061718415
21	0xbdff8fcf	-0.12478601
22	0x3c011e50	0.007880762
23	0xbd915bef	-0.07097613
24	0x3dd4665f	0.10371088
25	0xbb97f016	-0.004636775
26	0x3d57865b	0.052618366
27	0xbd1eb883	-0.038750183
28	0x3cf30459	0.029665159
29	0x3cfae794	0.030628003
30	0xbdaa6bda	-0.08321352
31	0x3b41d602	0.0029577021
32	0xbada4a45	-0.0016654214
33	0xbdb5bb19	-0.08873577
34	0x3da53615	0.08066956
35	0xbd7f0675	-0.062262017
36	0x3ddb9d2f	0.1072334
37	0xbb5f0b17	-0.003403371
38	0xbc8ecbbb	-0.01743113
39	0x3d75aceb	0.05997936
40	0xbb070951	-0.0020604918
41	0x3d77115b	0.060319286
42	0x3d78b9a9	0.060723934
43	0x3de8932b	0.11356195
44	0xbc9739f4	-0.018460251
45	0xbd4206a6	-0.04736962
46	0xbb974f76	-0.004617627
47	0x3d66d4e2	0.056355365
48	0x3cfe1b5c	0.031018905
49	0x3d4a1803	0.049339306
50	0xbd6f08b7	-0.05835792
51	0x3d64810c	0.05578713
52	0x3d49ff5b	0.04931579
53	0xbc72032b	-0.014771263
54	0xbc134661	-0.008988948
55	0xbb86f700	-0.0041188
56	0x3dc324ed	0.095285274
57	0xbccd5db5	-0.025069097
58	0x3d6a994a	0.057275094
59	0x3d87e364	0.06635168
60	0xbcdd0ad4	-0.026982702
61	0x3cc3dcbf	0.02390897
62	0xbdba5523	-0.0909827
63	0xba98881a	-0.0011637241
64	0xbd1f2ae7	-0.038859274
65	0xbcb5dbc6	-0.022199523
66	0x3d694514	0.056950644
67	0x3df1834d	0.11792622
68	0xbd876685	-0.06611351
69	0x3db18761	0.086683996
70	0x39d9ad56	0.0004151861
71	0x3defe54e	0.11713658
72	0x3d547d21	0.051877145
73	0xbb915997	-0.004435729
74	0x3cca3c75	0.024687031
75	0xbca2315a	-0.019798923
76	0xbd2312d3	-0.039812874
77	0xbce9b6df	-0.028529583
78	0x3dd7b5e7	0.10532742
79	0x3d35ee20	0.044416547
80	0x3c6e9acb	0.014563273
81	0x3d64c48b	0.0558515
82	0x3d8390c8	0.06424099
83	0x3c34e63c	0.01104122
84	0x3d8090bb	0.06277605
85	0xbd2d3235	-0.04228421
86	0x3d38576c	0.045005247
87	0x3d39ab81	0.045329574
88	0x3dde67e2	0.10859658
89	0xbdae01fc	-0.08496472
90	0x3d8e307d	0.06942842
91	0x3d83ac34	0.064293295
92	0x3de67350	0.11252463
93	0x3d8934a7	0.06699496
94	0xba1ea61c	-0.0006051974
95	0x3d008a77	0.03138205
96	0xbe104148	-0.14087403
97	0xbd01bdcd	-0.03167515
98	0xbd9ded0e	-0.0771123
99	0x3d87d37e	0.06632136
100	0x3d185102	0.03718663
101	0x3c2cd377	0.010548464
102	0x3dbcfe58	0.092282
103	0xbda1fc50	-0.07909453
104	0x3d4913b8	0.04909107
105	0x3da967fa	0.08271785
106	0xbb5f6576	-0.0034087575
107	0xbd607d95	-0.054807264
108	0x3d8ad5b2	0.067790404
109	0x3d3a1789	0.0454326
110	0xbd2bfed5	-0.041991074
111	0x3dd1cf54	0.10244623
112	0x3c13d963	0.009023997
113	0x3cc09905	0.023510465
114	0xbd876a51	-0.06612075
115	0x3cdf032d	0.027223194
116	0x3e15c7aa	0.14626947
117	0x3d9e66b5	0.077344336
118	0x3d16a9de	0.03678309
119	0x3cba7dab	0.022765001
120	0x3c488ee1	0.012241096
121	0xbdcc2436	-0.09967844
122	0x3d27c86d	0.040962625
123	0x3d6dedc8	0.058088094
124	0x3c1c4de9	0.00954006
125	0xbdce68af	-0.100785606
126	0x3c5db022	0.013530763
127	0x3d4ceea8	0.050032288
128	0x3d1b5433	0.037922096
129	0xbcd59077	-0.026069863
130	0xbccc4af8	-0.024938092
131	0x3d874ae4	0.06606081
132	0x3d8bd1c9	0.06827123
133	0xbd16ee2c	-0.036848232
134	0x3da7b449	0.081886835
135	0xbcc54486	-0.024080526
136	0x3cfbbd14	0.030729808
137	0x3cea533d	0.028604144
138	0x3dd74fb7	0.10513251
139	0x3c874639	0.016512977
140	0x3cc341ed	0.023835147
141	0xbc97a866	-0.018512916
142	0x3d58960e	0.05287748
143	0x3e091205	0.1338578
144	0xbd90eccc	-0.070764154
145	0x3cd2f7dc	0.025752954
146	0x3d2191b7	0.039445605
147	0xbc848157	-0.016174955
148	0xbcc396a1	-0.023875536
149	0xbc11dc81	-0.00890267
150	0x3cb5bd06	0.02218486
151	0xbd64f9c4	-0.055902258
152	0x3e36528d	0.17804928
153	0x3d224ae0	0.039622188
154	0xbc376b6d	-0.011195046
155	0x3de57412	0.11203779
156	0x3c87c3e1	0.016572895
157	0xbd7b04dc	-0.06128393
158	0x3dde9f72	0.108702555
159	0x3d2340f0	0.03985685
160	0x3d12c91c	0.035836324
161	0xbd89638f	-0.067084424
162	0xbdb48c0f	-0.088157766
163	0x3c53bc54	0.012923319
164	0x3c9ef99f	0.019406138
165	0x3b1bf1ec	0.002379532
166	0x3d624852	0.05524475
167	0x3ce61433	0.028085804
168	0x3d915a44	0.07097295
169	0x3dfd8b7c	0.1238012
170	0x3e0aeabf	0.13566111
171	0x3d8301c5	0.06396822
172	0xbd835fad	-0.06414733
173	0x3c4df64d	0.01257093
174	0x3d479c68	0.048733145
175	0x3d9d5045	0.07681326
176	0xbd76b096	-0.060227
177	0xbc120e40	-0.00891453
178	0xbda30352	-0.07959618
179	0xbc057963	-0.008146617
180	0x3d01de10	0.031705916
181	0xbcf78236	-0.030213457
182	0x3ded1e6e	0.115780696
183	0xbda206fc	-0.079114884
184	0x3dad59b0	0.08464372
185	0xbdd0fe19	-0.10204715
186	0xbc1b988f	-0.009496822
187	0xbd6a864c	-0.05725698
188	0xbc581898	-0.013189457
189	0x3d096155	0.03354009
190	0xbc8094fd	-0.015696043
191	0x3e303b29	0.17210068
192	0xbd2821bc	-0.041047797
193	0x3cf77126	0.03020532
194	0xbe156015	-0.14587434
195	0x3da93a9d	0.08263133
196	0xbd3b824a	-0.04577855
197	0x3dbda9ee	0.09260927
198	0x3d3271e0	0.04356563
199	0x3e102ddf	0.14079998
200	0x3d1a6797	0.037696447
201	0xbd9482b8	-0.07251495
202	0xbd359b52	-0.044337578
203	0x3d2f7dff	0.04284477
204	0x3d3526c5	0.044226427
205	0xbe0bbb13	-0.13645582
206	0x3c4a2b08	0.012339361
207	0xbd6f723b	-0.058458548
208	0x3c706f9a	0.014675045
209	0xbd8a1666	-0.067425534
210	0xbe04e0aa	-0.12976328
211	0xbdadda4d	-0.08488903
212	0xbdb7d15a	-0.089754775
213	0x3d8de0a3	0.06927612
214	0xbca78004	-0.020446785
215	0xbc86694b	-0.01640763
216	0x3be8741d	0.00709392
217	0xbca2f5d3	-0.019892609
218	0x3d9321d1	0.07184184
219	0xbd27dca7	-0.040981915
220	0x3de28574	0.110606104
221	0x3db44296	0.08801763
222	0x3e2057e8	0.15658534
223	0x3c20c042	0.009811463
224	0xbd16e480	-0.03683901
225	0x3d3c8d3a	0.04603312
226	0x3d273d43	0.040829908
227	0x3d9ad47d	0.0756006
228	0x3e0f792c	0.14011067
229	0x3da32f3c	0.079679936
230	0x3dd7badf	0.1053369
231	0xbd41b976	-0.04729601
232	0x3e1863fc	0.14881891
233	0xb9e38786	-0.00043397787
234	0x3de1efc9	0.110320635
235	0xbdaf093d	-0.08546684
236	0xbcb07852	-0.021541748
237	0xbd88c68c	-0.06678495
238	0x3ce87042	0.028373841
239	0x3baacc05	0.0052123093
240	0x3dc1cac2	0.09462501
241	0x3d46a555	0.048497517
242	0x3de65f9d	0.112487055
243	0x3d87399b	0.06602784
244	0x3df132c4	0.11777261
245	0x3d0ad86e	0.03389781
246	0xbb2edbdb	-0.0026681337
247	0x3d6351b2	0.055497833
248	0x3d222e86	0.03959515
249	0xbda76d7a	-0.08175178
250	0x3cdea784	0.027179487
251	0x3d895490	0.06705582
252	0x3d93cee6	0.07217197
253	0x3cabdbc8	0.020978823
254	0x3ca44ed1	0.020057114
255	0xbbbd4d75	-0.005777056

decoder.2.bias f4 [32]
0	0x3d212c63	0.03934897
1	0xbd583631	-0.052786056
2	0x3c531d3b	0.012885387
3	0x3d7588af	0.059944805
4	0xbd9e142b	-0.077186905
5	0x3d3639a8	0.04448858
6	0xbd802e81	-0.0625887
7	0xbdd295db	-0.10282489
8	0xbc91a2e8	-0.017777875
9	0x3cbc694f	0.022999434
10	0x3d29b876	0.04143568
11	0xbd3b044f	-0.045658406
12	0xbb68c310	-0.0035516657
13	0x3d0059d6	0.031335674
14	0xbd2f5219	-0.042802904
15	0x3d81aa14	0.06331268
16	0xbd2f82f5	-0.0428495
17	0x3df3cf0c	0.119047254
18	0xbd194745	-0.037421484
19	0x3cbe3581	0.023218872
20	0xbda0abdc	-0.078452796
21	0xbddbd303	-0.10733607
22	0xbca5a863	-0.020221895
23	0x3d3cc53f	0.046086546
24	0x3da94180	0.08264446
25	0xbcc7f4ad	-0.024408663
26	0xbd2de3ca	-0.042453565
27	0xbd50d33f	-0.05098271
28	0x3d57492f	0.052560028
29	0xbd8aee68	-0.06783754
30	0xbd04ecc4	-0.03245236
31	0x3d0e8d68	0.034802824

decoder.4.weight f4 [32, 3, 2, 2]
0	0x3e14ce4c	0.14531821
1	0xba91da30	-0.0011127647
2	0xbe207899	-0.15671004
3	0xbea5e882	-0.32403952
4	0xbc0857a6	-0.008321678
5	0x3e7a7662	0.24459222
6	0xbc8389f4	-0.016056992
7	0x3e32c82c	0.17459172
8	0x3e80a7b9	0.25127962
9	0x3e3b5976	0.18295845
10	0x3d2b4fd8	0.04182419
11	0xbd515fb4	-0.05111666
12	0xbda3d590	-0.07999718
13	0x3e454e2c	0.19268101
14	0x3c5921ad	0.013252658
15	0xbe1a43ad	-0.15064879
16	0xbe3ebe95	-0.18627389
17	0xbe138497	-0.14406048
18	0xbde5f689	-0.112286635
19	0x3c197e0d	0.009368432
20	0xbebc9ad5	-0.36836877
21	0xbe1789ac	-0.14798611
22	0xbdc7f927	-0.09764319
23	0xbdb64b1b	-0.08901044
24	0x3e1f36dc	0.15548271
25	0x3dd99a1e	0.10625099
26	0x3e4c4bd6	0.19950804
27	0x3e4844a1	0.1955743
28	0xbe693616	-0.22774538
29	0x3defbe08	0.117061675
30	0x3e2057f2	0.15658548
31	0xbdcf4df1	-0.10122288
32	0xbe8648c4	-0.2622739
33	0xbe72cf57	-0.23711906
34	0x3c946c86	0.018118154
35	0xbd430d9b	-0.047620397
36	0x3e547483	0.2074757
37	0x3ea2398e	0.31684536
38	0xbd985ea6	-0.07439928
39	0x3e996ffa	0.29968244
40	0x3d414290	0.04718262
41	0x3e52a334	0.2057007
42	0xbe08fbfc	-0.13377374
43	0x3e86e118	0.26343608
44	0xbcf620dc	-0.030044965
45	0xbcb7aaeb	-0.022420367
46	0x3e133398	0.1437515
47	0x3e7bd987	0.24594699
48	0xbe6ffd6f	-0.23436521
49	0xbe1eb2fc	-0.15497965
50	0x3db48369	0.08814127
51	0x3d94e27c	0.07269761
52	0xbe7c6aa0	-0.24650049
53	0x3e05c857	0.13064705
54	0xbdcbade4	-0.099452764
55	0x3d4ab76c	0.04949133
56	0xbd3f3a7d	-0.04668664
57	0x398bc204	0.000266567
58	0x3ddc68bd	0.10762165
59	0x3cdb5700	0.026774883
60	0xbd597622	-0.053091176
61	0xbe8279dd	-0.254836
62	0xbbac5787	-0.0052594575
63	0xbe8d27e7	-0.27569506
64	0x3db3eb71	0.08785141
65	0xbe69badd	-0.22825189
66	0x3db0c13e	0.08630608
67	0xbe284e13	-0.16436033
68	0x3e03ca26	0.12870082
69	0xbd408dff	-0.047010418
70	0x3da27f59	0.07934446
71	0x3d07bb5d	0.033137668
72	0xbe8d1bf3	-0.27560386
73	0xbe180752	-0.14846542
74	0xbe3ab344	-0.18232447
75	0xbe80fa6b	-0.25191054
76	0xbd9a167e	-0.07523821
77	0x3e063fd9	0.13110293
78	0xbdf22b1b	-0.11824628
79	0x3d72b0e4	0.059250727
80	0xbdd53ada	-0.10411616
81	0xbcac4485	-0.021028766
82	0xbd428785	-0.047492523
83	0xbde9410e	-0.11389361
84	0x3e2e02c4	0.16993243
85	0x3b8edc89	0.004359786
86	0xbd664802	-0.056221016
87	0x3d657121	0.05601609
88	0xbe8b9414	-0.27261412
89	0x3d2d7f9a	0.04235802
90	0xbe9362ab	-0.28786215
91	0xbd5ab32b	-0.053393524
92	0xbd3f1389	-0.04664949
93	0xbe873e96	-0.26414937
94	0x3e0234ad	0.12715407
95	0x3d5276ba	0.051382758
96	0x3e014174	0.12622625
97	0xbe1db9ad	-0.15402861
98	0xbe617f14	-0.22021133
99	0x3d6fbe9f	0.0585314
100	0xbe81b327	-0.25331995
101	0x3dc909cc	0.09816322
102	0x3c6c3217	0.014416239
103	0xbe1d3c63	-0.15355067
104	0xbe8f0103	-0.2793046
105	0x3dca806b	0.09887775
106	0x3e3c4716	0.18386492
107	0x3c31638f	0.010826959
108	0xbe5c95f0	-0.21541572
109	0x3da2fa46	0.07957892
110	0xbda5e3d7	-0.081000976
111	0xbbbba429	-0.0057263565
112	0x3dd3d927	0.10344153
113	0xbe7fa299	-0.2496437
114	0xbe2fb4c5	-0.17158802
115	0xbe88dcc2	-0.26730925
116	0xbe83bc59	-0.25729635
117	0x3e4734cd	0.19453736
118	0xbb7cd48a	-0.0038578832
119	0xbe162d56	-0.14665732
120	0xbe337438	-0.17524803
121	0xbda50a89	-0.0805865
122	0xbe5eadfb	-0.21746056
123	0x3e330f3c	0.1748628
124	0x3e70ca9e	0.23514792
125	0x3e88f3af	0.26748416
126	0x3ea9fe17	0.33201668
127	0x3e969659	0.2941158
128	0xbe060009	-0.13085951
129	0xbc5eac0d	-0.013590825
130	0x3e71cc04	0.23612982
131	0x3e9088e4	0.2822944
132	0xbe7766b3	-0.2416027
133	0xbe32df4d	-0.17467995
134	0xbe6e2d01	-0.23259355
135	0xbe907db1	-0.28220895
136	0x3d995df6	0.07488625
137	0x3e003352	0.12519577
138	0x3d5ca739	0.053870413
139	0x3e05c888	0.13064778
140	0x3c9db158	0.019249603
141	0x3e0c6739	0.13711251
142	0x3e06f235	0.13178332
143	0x3d59e4b3	0.05319662
144	0x3e13eb14	0.14445144
145	0x3db012bc	0.08597323
146	0xbe8f7bc9	-0.28024128
147	0xbe2997e3	-0.16561846
148	0x3e8e86e7	0.27837297
149	0xbd9f0f3e	-0.07766579
150	0xbdc5212b	-0.09625467
151	0xbc0fff4c	-0.008788895
152	0xbda837ad	-0.08213744
153	0xbdfa38d9	-0.12217874
154	0x3e612ab4	0.21988946
155	0xbe1a30a3	-0.15057616
156	0xbcb54706	-0.022128593
157	0xbde4f194	-0.1117889
158	0xbe3d0974	-0.18460637
159	0xbea7498c	-0.326733
160	0xbe42b4ef	-0.19014333
161	0x3e30aca4	0.17253357
162	0xbbb475fa	-0.005507228
163	0xbe43e388	-0.19129765
164	0x3e7cfc23	0.24705558
165	0x3da478a7	0.08030825
166	0xbdd422a3	-0.10358169
167	0x3e4b4889	0.19851889
168	0x3e769aa8	0.24082434
169	0x3e583e8f	0.21117614
170	0x3e1885c7	0.14894782
171	0xbe2fe9c2	-0.17179015
172	0xbe5c0eaa	-0.21489969
173	0x3e313d0f	0.17308448
174	0xbe6943ea	-0.22779813
175	0x3c5c5903	0.013448956
176	0xbe684305	-0.22681816
177	0xbe3d3bcc	-0.18479842
178	0xbe742211	-0.2384112
179	0x3dca92f7	0.098913126
180	0x3e913102	0.28357702
181	0xbd6429a7	-0.055703785
182	0x3e960fe7	0.29309008
183	0xbd3c3ed7	-0.045958366
184	0x3e006460	0.1253829
185	0x3eb751df	0.3580465
186	0x3eb02e0c	0.3441013
187	0x3e0f5624	0.13997704
188	0xbdfd4ee4	-0.12368563
189	0xbdd65699	-0.10465736
190	0x3e859183	0.2608758
191	0x3e90329d	0.28163615
192	0x3e5b75b2	0.21431616
193	0x3e87d982	0.26533133
194	0x3da1738d	0.07883368
195	0xbe1bad2a	-0.15202776
196	0x3e3ed107	0.18634425
197	0x3e9cce87	0.30626318
198	0xbbb6fc46	-0.0055842726
199	0x3e4253e9	0.18977322
200	0x3e3a4d27	0.18193494
201	0x3e8fcbad	0.2808508
202	0xbdfff94f	-0.12498724
203	0x3e5823b8	0.21107376
204	0x3e1d028d	0.15333004
205	0xbcb86804	-0.022510536
206	0x3e73a295	0.23792489
207	0xbca87a71	-0.020566197
208	0xbe7fa5ab	-0.24965541
209	0xbdfbb225	-0.12289838
210	0x3d1a7e0d	0.037717868
211	0xbdd52e2b	-0.104091965
212	0x3e8bb656	0.2728755
213	0x3e255de3	0.16149096
214	0x3e599813	0.21249418
215	0x3eb49845	0.35272422
216	0x3cc24ecd	0.023719216
217	0xbe1e17db	-0.15438788
218	0xbe0909c5	-0.13382633
219	0xbe524347	-0.20533477
220	0xbe8788ca	-0.2647155
221	0x3b87d58d	0.0041453303
222	0x3da4892c	0.08033976
223	0xbe614855	-0.22000249
224	0x3d833677	0.06406873
225	0xbe264dd0	-0.1624062
226	0x3d38216e	0.044953756
227	0xbd250fb8	-0.040298194
228	0xbe28c427	-0.16481076
229	0xbe63971f	-0.22225617
230	0x3c446c8e	0.011988772
231	0xbbc3de0a	-0.005977397
232	0x3cf3fae7	0.029782725
233	0xbc93c51d	-0.018038327
234	0xbe040cfd	-0.1289558
235	0xbe56a959	-0.20963039
236	0x3dfb6502	0.12275125
237	0xbd8cfd23	-0.068842195
238	0xbe0a6a2c	-0.13517064
239	0xbe91829d	-0.28419963
240	0x3e3f1710	0.18661141
241	0xbe42f771	-0.19039704
242	0x3df6785c	0.120346755
243	0xbdb194d9	-0.086709686
244	0xbe387536	-0.18013462
245	0xbeae9b4a	-0.3410285
246	0xbe3830e3	-0.17987399
247	0xbe993fb3	-0.2993141
248	0x3c0444c2	0.008073034
249	0xbe669736	-0.2251862
250	0x3e752d0e	0.23942968
251	0xbdd3e9ca	-0.10347326
252	0xbd7ba600	-0.061437607
253	0x3a9458d4	0.0011317977
254	0xbe4b6ef5	-0.19866545
255	0xbe1d3c78	-0.15355098

decoder.4.bias f4 [3]
0	0xbe8f97b0	-0.28045416
1	0xbd7de591	-0.06198651
2	0xbe408e4c	-0.18804282
