erase_watermark/best_model.pth (torch, 542500 bytes, 8 tensors)

fc1.weight f4 [128, 784]
00000000: 7f50 c93e 5144 b93e 6500 ea3d 524f 7a3d
00000010: 39a9 a1be 0e45 75be 267d a4be 1862 233e
00000020: a586 6a3e 3f9a a83e 2ed7 e23d 4028 94bd
00000030: fbd0 72be 1dd0 2a3e 6482 063d 931d da3c
00000040: 2b43 893d cb11 f4bc 7e30 5e3e b50e 573e
00000050: 04aa 9f3e 5763 c93c 866f 5ebe 3a90 a5be
00000060: 1aef 783e 767f 1e3e 3a05 bc3e f240 c43e
00000070: ebc0 523c b714 44ba ec7d f0bd 276c d2bd
00000080: 41f6 c1be 44d4 afbe e9f3 013e 2639 aebd
00000090: 98b5 64be 0c2c 2b3d fc4f b9bc 895b bd3d
000000a0: 5ecc 0b3e 6bbf 963d 1c1f 993d b296 fc3d
000000b0: 03ed bf3d a831 6dbd 94f8 9cb8 fe8c 0abe
000000c0: 2d63 92be 8adc 50be 21d7 4cbe 199c d5be
000000d0: 81d1 f6bc 3fa4 6ebd 55dc 4dbd d34a da3c
000000e0: 140f 4b3c 9050 42bd 883b 00be 428a 6f3d
000000f0: 3e10 1abf 28ce 453d 1684 a0bd aacf bfbd
00000100: bd65 77be bdab 27bd 4bb8 173d a847 753c
00000110: acc5 eebd 7ca4 363c 8b9b 1e3e 6548 b9bc
00000120: 7a9e 2ebe a232 963d 1ba3 cdbb 145d 913c
00000130: c434 41be 94c6 33be 15a1 8e3e 448e cabe
00000140: 3c9b 1b3d e5e0 78bd 8a5d 38bd da1c 23bd
00000150: 80a3 96bb e989 00be 3167 ddbd ab50 b3be
00000160: 7109 12bf 9133 483e 8a5c a63c d419 d3bc
00000170: d614 3dbe 45af 523e e792 003e 9cf6 d8bd
00000180: d9f9 7dbd b29d 4e3d b232 a13d 84fa 8e3d
00000190: 05cf dcbd 2ee5 2d3d ef92 333e 2283 033e
000001a0: cad6 70bd 8abe 6fbe 78d9 20be 8430 74bd
000001b0: 85e3 4abe c081 c6bd 6ea4 3cbd 8c02 8fbd
000001c0: aeb1 d43b 67e5 b5bd f853 2abe c792 b1be
000001d0: 6c80 d9be 6698 65be 17ce c73d 8d35 f83c
000001e0: f21e 06bd 1107 bb3d 5bc4 ab3c 4c07 c1bd
000001f0: cb91 45bc d337 383d d666 163c 6e1a 0c3d
00000200: 439d 5ebd f0a8 613b 1a4f bb3d fe6f a13d
00000210: 16e0 e2bd 7ca3 32be c009 9abd 435a 34be
00000220: e8d4 93be 7bf1 e7bd 0127 a53d 823b b63d
00000230: 6b5d c8bc b694 f6ba 458f b2be 30fc ddbe
00000240: b6ee 47be c344 b13c 5b39 83bd 0982 183e
00000250: 3c46 013e bd97 4f3d 7135 3f3d 0e38 76bd
00000260: 6c58 47bd 6e5b 043d b604 4dbd 146c c3bc
00000270: e162 9e3d 265c 0abd bdfc ea3d 0fb5 88bc
00000280: 8ef0 45bd 6904 86be 23f5 07be a059 05bf
00000290: ceff 03bf d617 87be 8f13 8b3d cca4 bb3d
000002a0: ecde ffbc 4b6b 703d be1b cdbe d23e 0dbf
000002b0: 3ce1 8ebe ad87 f1bd e4d4 963c 9988 2b3d
000002c0: 1678 cfbc ec93 dd3d 2da1 39bd 354f a2bd
000002d0: eb2d 9abc a11a a4bd 2244 20be 8853 7abd
000002e0: 2fe4 193d 987a 11bd 47b3 923d 5df4 2a3e
000002f0: 72a7 2c3e a71b 84bd 86dc 6cbe c1dd 17bf
00000300: 051c 02bf 02cd 9abe cd67 223d 60cd f53b
00000310: f16b 60bd 1a7b c5bd 6ccd 93be fc23 f1be
00000320: 1948 cbbe 0be8 babe bc69 bf3d 13e5 e33d
00000330: 5cc9 d73d f70f 403e d364 3dbd 181f 0cbe
00000340: f743 c2ba 6e50 e13c 87f5 8c3b 789a 163d
00000350: 2f2a 71bb 4a1b 43be 0e9c b43d bfee 8e3e
00000360: 5084 763e 0efb 8b3b 7705 39be 5001 2cbf
00000370: 8074 9cbe 63cf 20be 1bbc 35be 361d afbd
00000380: b260 acbd ba48 b3bd f50b 6abe e36b b0be
00000390: fb74 dbbd 3970 99be 1b5c c939 188c 463e
000003a0: 87bd 203e 8b93 3a3e 9eee 0abd f584 bcbd
000003b0: 2b0a 4fbd a98b 193e e15c 973c b6b7 983d
000003c0: 633f d5bc 053f f9bd 4d56 3dbb e81f 233e
000003d0: c958 1d3e cafb ce3c 8ea7 31be 17f7 30bf
000003e0: fd10 ebbe 1451 22be 01ee 42be 9498 05be
000003f0: 2c28 aebd cf9f a03c c771 85be 4db5 2bbe
0.39319226 0.36184934 0.114258565 0.061110802 -0.3157442 -0.23952124 -0.3212673 0.15955389
0.22902925 0.3293018 0.110761985 -0.072342396 -0.23712532 0.16680951 0.032839194 0.02662543
0.067022644 -0.02979364 0.21698186 0.21001704 0.311844 0.024583502 -0.2172223 -0.323366
0.2430996 0.1547831 0.36722738 0.383308 0.012863378 -0.00074798934 -0.11742768 -0.10274535
-0.3788319 -0.34341633 0.126907 -0.08506994 -0.22334898 0.041790053 -0.022621147 0.092459746
0.13652179 0.07360729 0.07476637 0.1233343 0.09371378 -0.057908684 -7.484961e-05 -0.13530347
-0.2859129 -0.20396629 -0.2000394 -0.41720656 -0.030129196 -0.058262106 -0.050258953 0.026647007
0.012393732 -0.04744011 -0.1252271 0.058481462 -0.60181034 0.04829231 -0.078376934 -0.09365781
-0.24159904 -0.040935267 0.03704099 0.014970697 -0.11658797 0.011147615 0.15489022 -0.022617528
-0.17052642 0.07333876 -0.006275547 0.017744578 -0.18867785 -0.1755622 0.2785727 -0.39561665
0.03798984 -0.06076135 -0.04501108 -0.039822437 -0.0045971274 -0.12552609 -0.10810698 -0.35022482
-0.57045656 0.19550921 0.020307798 -0.025769152 -0.1846498 0.20574673 0.12556039 -0.10593912
-0.06200585 0.05044336 0.078709975 0.06981376 -0.10781673 0.04245489 0.1753652 0.12842992
-0.05879859 -0.23412529 -0.15707958 -0.05961658 -0.19813354 -0.096927166 -0.04605525 -0.06982908
0.0064909076 -0.08881646 -0.16633594 -0.34682295 -0.4248079 -0.22421417 0.097561054 0.030298973
-0.032744355 0.09132207 0.020967653 -0.0942522 -0.0120586855 0.044975113 0.009179791 0.034204893
-0.054349195 0.003443297 0.09145947 0.07882689 -0.11077897 -0.17445177 -0.07521391 -0.17612557
-0.28873372 -0.113253556 0.0806408 0.08898069 -0.024458608 -0.001881263 -0.3487493 -0.43356466
-0.19524655 0.021639233 -0.06407424 0.14893354 0.12624449 0.05068182 0.046681825 -0.06011205
-0.04866831 0.032313757 -0.05005332 -0.023855247 0.077337034 -0.033779286 0.11473987 -0.016687898
-0.048325114 -0.2617524 -0.13277106 -0.5208988 -0.515622 -0.26385373 0.0679084 0.09162292
-0.031234227 0.058696073 -0.40060228 -0.5517398 -0.27906215 -0.11793456 0.018412061 0.041878317
-0.025325816 0.108192295 -0.045319725 -0.07925264 -0.018820724 -0.080128916 -0.1565099 -0.061114818
0.03757113 -0.035517305 0.07163101 0.1669478 0.1686075 -0.06450587 -0.23130998 -0.59322745
-0.50824004 -0.30234534 0.039649773 0.0075012892 -0.05479044 -0.096426204 -0.28867662 -0.47097766
-0.39703444 -0.3650516 0.09346339 0.11127677 0.10536453 0.1875609 -0.04623873 -0.13683736
-0.001482128 0.027504172 0.00430173 0.036768407 -0.0036798825 -0.19053379 0.088188276 0.27916524
0.2407391 0.0042718714 -0.18068491 -0.671895 -0.30557632 -0.15704112 -0.17747538 -0.085504934
-0.08416881 -0.08754106 -0.22856124 -0.3445731 -0.10715672 -0.29968432 0.0003840633 0.19389379
0.15697299 0.18220346 -0.03391897 -0.09205047 -0.050546806 0.14994682 0.018476905 0.07456915
-0.026031202 -0.12170223 -0.002889055 0.1593014 0.153659 0.025266547 -0.17349073 -0.6912703
-0.459114 -0.15851241 -0.19036104 -0.13046485 -0.08503756 0.019607453 -0.26063368 -0.1676838

fc1.bias f4 [128]
00000000: 9e1f 923e 4ea6 5fbe 021f 213d 766d ae3d
00000010: 9ac8 073c 6184 6ebd e384 1c3c 58b5 ae3e
00000020: a202 703d 0ee4 d43d 44c8 883d b409 08be
00000030: 50ed f13e d0ca 37bc 9c61 283c 770e ea3d
00000040: 5dac 17be a874 303e f820 5d3e 7ea2 03bd
00000050: f63e 5abb 50cd 903d a6e6 5fbe 9da1 003f
00000060: 1a7e 97bd d33f 283e 851d 883e ab35 dbbc
00000070: a43b 0dbd e7d5 013e 227a 2dbd ee86 bc3e
00000080: 783a 94be d4e0 35bf 0f3c 903e 0e51 ee3e
00000090: 093d 0f3d 9af5 e5bc 9d39 ff3d b59a 8d3e
000000a0: c5c1 83be b0db 9cbe 2a64 8e3d 648d 78bc
000000b0: ab44 dbb9 89ce 0c3e 0efc 16be 912a b03d
000000c0: c011 56be 8400 393d 0a30 ba3e 4afc d4bd
000000d0: 24e0 8bbd f7c3 4f3e a465 f3bc c60e c3ba
000000e0: 36ed 543d d257 3c3e 7565 c3be 7ec5 3abc
000000f0: f46d 93bd de16 ec3b 63f9 b4be ee63 bd3e
00000100: 68bd 503c 588f ae3e a92f ee3c efa9 103f
00000110: 89c4 7d3e fcb4 84bc 2b7e ae3e 7c39 ac3e
00000120: 379c 8ebb ca2c 993d d60e 00be 2bfd b33d
00000130: 14ae 8f3e 8387 8b3d 9eb4 05bf 710a 613d
00000140: 40e9 9dbc 6c15 efbc af71 c53c de7d 4b3e
00000150: 8864 71be 1f99 02be 938c 3bbe d88b 393e
00000160: 70f0 793e 4ffd 85bc 6b3c 6dbd d5e7 333e
00000170: ff14 05bc a181 d43e 0c80 d63e abef 0dbe
00000180: 178b 64be 4914 78be 5986 083e 8c18 bb3e
00000190: 3825 793e 391f 963c 1f4a 15be aa28 053d
000001a0: 8898 00be fd43 d23e d2a2 373d cdfa 7f3a
000001b0: 0a2d 173e 6971 9d3d 79de 603e c0c7 66be
000001c0: 850d 97be 7845 90be d69d 8fbc 2fbd 2c3e
000001d0: 46e9 853d 22ad 5fbe 40ea 7dbe da82 ad3e
000001e0: a022 e13e b0ce 99bc 8199 e23d 4025 c83d
000001f0: cb9f b83d 73b7 c83c 203f 233c 00ab 573e
0.28539747 -0.21840784 0.039336212 0.08516972 0.008287573 -0.058231715 0.009553167 0.3412273
0.05859626 0.103950605 0.06678823 -0.13284951 0.47251368 -0.011217788 0.010277178 0.1142854
-0.14811845 0.17232001 0.21594608 -0.032137387 -0.0033301688 0.0707041 -0.21865329 0.502466
-0.07397099 0.16430597 0.26585022 -0.02675899 -0.034480706 0.12679254 -0.042352803 0.36821693
-0.28950858 -0.71046185 0.2817082 0.46546215 0.034970317 -0.028071214 0.12462161 0.27657095
-0.25733772 -0.30636358 0.069526985 -0.015170429 -0.00041822097 0.13750662 -0.14744589 0.08601869
-0.20905209 0.045166507 0.36364776 -0.10399683 -0.06829861 0.20289598 -0.029711552 -0.0014881722
0.051984034 0.18392876 -0.38163343 -0.011399625 -0.07198706 0.0072048744 -0.35346517 0.36990303
0.0127404705 0.34093738 0.02907546 0.565093 0.24782003 -0.016199581 0.34080634 0.33637607
-0.0043521184 0.07479246 -0.1250566 0.08788522 0.280625 0.06812956 -0.52228725 0.0549416
-0.019276261 -0.02918502 0.02410206 0.19872233 -0.23573506 -0.12753724 -0.18315344 0.18119752
0.24408126 -0.016356139 -0.057918947 0.17568906 -0.008122682 0.4150515 0.41894567 -0.13860957
-0.22318684 -0.24226488 0.133325 0.36542165 0.24330604 0.018325435 -0.14579056 0.032509483
-0.12558186 0.41067496 0.044833012 0.000976485 0.14763275 0.07687647 0.21959867 -0.22537136
-0.29502502 -0.28178 -0.017531317 0.16869043 0.06538634 -0.21843389 -0.2479639 0.33888894
0.4397173 -0.018775314 0.11064435 0.0977273 0.09014853 0.024501538 0.009963781 0.21061325

residual_block.linear1.weight f4 [128, 128]
00000000: f534 cbbd 5e6d 19be 75c2 0ebe a3fa 9bbd
00000010: e333 0b3e 6aa5 6d3d 7ae7 70bd ca5e 313e
00000020: 02d0 2f3e 396f 07be 3be4 d23c 3420 b93d
00000030: b5b1 21be 1d21 df3b d0f8 ee3d b9bd 123e
00000040: da5f b63d 1d15 e13c 64d3 213e 8441 673d
00000050: e8b3 bcba bc65 e13d 2719 963d 0837 93bd
00000060: b59b 06bd 6804 b93d 2896 9f3d ba49 893d
00000070: b486 673d 499e c0bc d9f0 94bd a6a1 0e3e
00000080: 560d b8bd fa53 0ebd 4e14 8fbe 0c4d 3ebe
00000090: c27b d33d ad9b 7ebd b0fd f53d 92c1 85bc
000000a0: 0306 88bd 55b5 70bd 6d34 8dbc d066 bebd
000000b0: 732a f9bc a501 cfbd 9822 dabd 7257 873d
000000c0: 1358 363d 0997 abbd ce4d d9bd eadf 7dbd
000000d0: 57f7 bbbe 8109 c6bd 5b05 05be 52bc 7dbd
000000e0: c528 213c 017b ca3d 51de a63d feb1 4d3d
000000f0: 7d64 f23d 8875 cdbc cdd7 3cbd 9027 07bf
00000100: dfc7 52bc c0a1 bf3a 287b 0fbc 2634 78bd
00000110: af1c 5bbc 2fda c5ba 8e28 9ebd e243 6bbe
00000120: 7880 94bd 771d 37bd 20fb a4bd 77f8 efbd
00000130: 8642 c23d ebdb 6dbe b748 3e3d 018d 00be
00000140: 656a 0eba d7c9 16be 4919 f8bc df1b 413d
00000150: 516e 8a3d c4a3 6dbc d732 95bd 5c3e 223e
00000160: 6016 1e3e c864 b73d 2ff1 d43d 7ae2 9cbe
00000170: 4a78 d63c d7a7 0d3e 5bb6 3cbd 2f62 413d
00000180: 043c 65bd cddc fc3d 9fde 9ebe 1c1b 233d
00000190: 0734 44be e6d7 5d3c ad75 cc3d ab63 8b3d
000001a0: c2ca 1b3c 3c81 54be 8844 15be 034b 8f3d
000001b0: 45df 743d 57f0 bebc 7b35 abbd e4d4 9c3d
000001c0: 5bfd 8fbc ed5b 06be 97cb bb3d 2ccc 71bd
000001d0: 038c 47bd dbd3 963d e9fa c6bc dd12 94bd
000001e0: 43f8 013e aebb ce3c d0fb e4bc 0411 683d
000001f0: 2e64 0c3c f58c 5f3e 45d0 65bc 0634 d03d
00000200: 5456 d43d 1ec3 91bc a867 293e 1352 d7bc
00000210: ec7f 80bc c15c 913d 6ef9 42bd 9a2f c7bd
00000220: ec61 1bbe 48da 1dbd e031 8a3d 8863 80bd
00000230: dd4a 6f3d 201d 2cbc d7d7 2bbc 03fc ca3d
00000240: 962c 9cbd ea4b 2abe b91c c23b 5a44 fd3d
00000250: efe6 af3d 2c4e c7b9 ccda 9abd 4b6a 043d
00000260: 9125 9dbd b23f e43c 7344 9f3d 30b1 453e
00000270: 2c97 82bc 895b aabd 0253 09be b67b d6bd
00000280: ec63 0dbe 3844 f0bd 71c2 c9bc 6a66 bf3d
00000290: 05de 44bd 0023 1d3d 9171 55bd 80f8 5fbd
000002a0: 83d2 5cbe e298 68bd 9af4 6dbd 157a fdbd
000002b0: e5e9 913c c426 a9bd 7ac9 2f3d 7228 7cbc
000002c0: 84b1 5bbd da99 4fbd 85e4 a8bc 3849 3fbd
000002d0: 1ab1 463c cfce 063e 627a 0a3e 360c f4bb
000002e0: 7f17 453c 5625 76bd 1223 223d 239f 99bb
000002f0: 461b 8a3c 8ff8 423d c200 ccbd ed98 143c
00000300: 5091 6a3c b22f 513e 8fcb a43d b548 d23b
00000310: 0491 403e 363b 853d 5879 95bb d6a3 08be
00000320: 37d3 11bc 4c86 04bd 8a35 b5bc 78d4 713e
00000330: dd2b 20be c2f2 363e d0a9 a53b 696b 4b3b
00000340: 3964 8a3d e085 be3d 4c9b c3bd 75c5 2bbe
00000350: 79d4 0abe ce2c d9bd 5841 43be a9e7 dabc
00000360: dd51 b7bc 73ba 983c 214f 6abe 34f6 20be
00000370: aefc 3c3d f15c 9abd 8981 b63d 2950 ba3b
00000380: 2e52 31bd ac9e 50be 9a80 13be c957 80be
00000390: 08f9 2abd c272 76bc ddcf ab3d 5eeb b73e
000003a0: a82a 2bbd dd88 5c3e 59cb cfbd 11b3 883d
000003b0: a3fd 3fbd 1206 553e 8cf4 96bd 8f2e 063d
000003c0: 04a0 4c3d 6c15 2d3b 87a6 3cbd 778a 223e
000003d0: 110e 873d e8d9 543c e344 133d 7eda 98bd
000003e0: e3ca afbd e859 48bc 581e ad3c 149c 5abd
000003f0: 7723 063e 9317 d0bc 5127 6bbd f25b 013d
-0.0992221 -0.14983127 -0.13941367 -0.076161645 0.13594012 0.05801908 -0.058814503 0.17321315
0.17169192 -0.13226022 0.025743594 0.090393454 -0.15790446 0.0068093673 0.11668551 0.14330186
0.08905001 0.027475888 0.15803295 0.056458965 -0.0014396878 0.110057324 0.07329016 -0.07188231
-0.032863338 0.090340436 0.07792312 0.06703515 0.056524947 -0.023512976 -0.072725005 0.13928851
-0.08986919 -0.034748055 -0.2794518 -0.18584079 0.10326339 -0.062160183 0.12011278 -0.016327653
-0.06641772 -0.05876668 -0.017236913 -0.09296954 -0.03041575 -0.101077355 -0.106511295 0.06608476
0.044517588 -0.08378417 -0.10610543 -0.06198112 -0.36712143 -0.096697815 -0.12990324 -0.061947174
0.00983638 0.098867424 0.08147872 0.050218575 0.11835573 -0.025080457 -0.04610424 -0.5279474
-0.012865036 0.0014620349 -0.00875739 -0.060596608 -0.013373538 -0.0015094931 -0.07722579 -0.22975114
-0.07251066 -0.044705834 -0.08055711 -0.11717313 0.094853446 -0.23228423 0.046456065 -0.12553789
-0.0005432724 -0.14725433 -0.030285494 0.04714572 0.067593224 -0.014504377 -0.072850876 0.158441
0.15438223 0.089547694 0.103975646 -0.30641538 0.026180405 0.13833557 -0.046072345 0.047212776
-0.05596544 0.12346802 -0.3102922 0.039820775 -0.19160472 0.013540244 0.099833824 0.068061195
0.00950879 -0.20752424 -0.14576924 0.06996729 0.05978324 -0.023307962 -0.0835981 0.07657793
-0.017576864 -0.13121004 0.09169691 -0.059032604 -0.04871751 0.07364627 -0.024289565 -0.072301604
0.1269236 0.025235977 -0.027952105 0.056656852 0.008568807 0.21831115 -0.014026706 0.10166173
0.10368028 -0.017793234 0.16543448 -0.026284253 -0.015685998 0.070977695 -0.047601156 -0.09725876
-0.15174073 -0.038538247 0.06747794 -0.06268984 0.058421005 -0.010504991 -0.010488472 0.09911349
-0.076256916 -0.16630521 0.005923834 0.12366553 0.08588969 -0.0003801448 -0.075612634 0.03232793
-0.07673181 0.027862404 0.077767275 0.19305873 -0.015941225 -0.0831824 -0.13410571 -0.10472815
-0.13807648 -0.11731762 -0.02462885 0.09345706 -0.048063297 0.038363457 -0.05211026 -0.054680347
-0.21564679 -0.056786425 -0.0580946 -0.12376801 0.017811725 -0.08259347 0.042916752 -0.015390502
-0.05363609 -0.050683834 -0.02061678 -0.046700686 0.012127185 0.13164829 0.13523248 -0.0074477447
0.012029528 -0.0600942 0.039584227 -0.00468816 0.016858708 0.047600325 -0.09961082 0.0090696635
0.014316872 0.2042835 0.08046638 0.0064173588 0.18805319 0.06505434 -0.0045615844 -0.13343748
-0.008900455 -0.032354638 -0.022120256 0.23616207 -0.15641733 0.17866042 0.0050556436 0.0031039363
0.06757397 0.093028784 -0.09551105 -0.16774543 -0.13557614 -0.10604249 -0.19067895 -0.026721792
-0.022377903 0.018643593 -0.22881748 -0.15718919 0.04613941 -0.075372584 0.089114256 0.0056858254
-0.043291263 -0.20373029 -0.14404526 -0.25066975 -0.0417414 -0.015042009 0.08389256 0.35921758
-0.041788727 0.21536584 -0.10146207 0.06674779 -0.046872746 0.20803097 -0.07370862 0.032759245
0.04995729 0.0026410474 -0.04605725 0.15873133 0.0659448 0.012991406 0.035954367 -0.07463549
-0.085836194 -0.012228467 0.021132633 -0.053371504 0.13099466 -0.025401866 -0.057410542 0.031581827

residual_block.linear1.bias f4 [128]
00000000: f197 e7bd 4c62 40be 9f21 2f3d 82ac cf3e
00000010: 3fc7 9e3e 3ed5 21be 0bbc 1a3e 722c c13d
00000020: f8be 82bd 3c54 ee3d b789 963d 8081 4a3e
00000030: 0e71 983d 2a1a 233d c895 9b3e f8b2 823e
00000040: 4ba1 9cbc 653f 543e ca24 373d 27a6 943e
00000050: 0c77 883d 4f24 443e 54bd bd3e 6ed4 aa3e
00000060: 6fc7 7e3e 78f1 153e f31e 4d3e d9f9 d73d
00000070: 11c3 0e3e f8ea aa3e 532e bcbd 3ae8 803e
00000080: 94e6 d23d 07fe 08be 10d0 133e aa8b 0c3e
00000090: f4da 5dbe 5f3d 213e c78f 043e 3829 bd3d
000000a0: d576 e03d b997 9c3e 0c77 a33d 959c a53d
000000b0: 9ca0 70bc 7362 85bd 68b8 7a3e 5ff3 833e
000000c0: dd36 36bc 8d03 c63e 0fd2 853e ee7d d43d
000000d0: 0c6e f13d bf1a 193d 5b89 3bbe 1b5a 0dbc
000000e0: 63d9 933d 42df f23e 2510 703e ac1e e33c
000000f0: 2517 8d3d 9c9e 3c3e 4311 8d3e ccbc 5a3c
00000100: 8bb6 073e 3303 3d3e ffee 563e ded1 8f3e
00000110: 6a87 ecbc 239a 4b3d 73c2 b7bd d016 d63d
00000120: ba74 b3bc e32b abbc 3cab ea3d 75ef c03c
00000130: f514 163f cfb5 6f3e 2ad8 553e 903d 173b
00000140: fcae 2c3e 770a 913e 1047 733e 71e7 993e
00000150: 761c 02be 11ac e2bd 4305 00bd e172 2d3e
00000160: 4d9b 9abd 207d a73e 5758 933e 972d 413e
00000170: a991 063e 24d0 953e e6eb 3e3e 16e0 3c3e
00000180: f12a 21bc 109f 6a3e 39a6 963e 298a eb3c
00000190: 5e5d 143e 4a3a 9b3d de56 9e3e 4a02 893e
000001a0: 35c5 113e 58f6 ef3d a6eb 3f3e e564 913e
000001b0: c35d 783d 005c e63e 0de0 cc3d bbfe 263e
000001c0: 6375 4fbd 62c1 b1bd 695e 2d3d 4183 803e
000001d0: 29b9 263e 37d5 403e bf28 a6bd 1fcf c93e
000001e0: d5c2 8f3e 7f4a 793c 3553 fe3c 34d3 4f3e
000001f0: 6941 433d 70db 36be 80f3 973d a208 0d3c
-0.113082774 -0.18787497 0.042756673 0.405613 0.31011388 -0.15804002 0.15110795 0.094323054
-0.06384081 0.1163716 0.07350486 0.19775963 0.074434385 0.039819874 0.30387712 0.25527167
-0.01911988 0.20727308 0.04471282 0.29033014 0.066633314 0.19154476 0.37058508 0.33365196
0.24880765 0.14642894 0.20031337 0.105457015 0.139416 0.33382392 -0.09188523 0.25177175
0.102978855 -0.13378154 0.14434838 0.13725153 -0.21665555 0.15746067 0.12945472 0.092363775
0.109601654 0.30584505 0.07981691 0.08086506 -0.01468673 -0.06512918 0.24484408 0.25771615
-0.011121479 0.38674584 0.26136824 0.10375582 0.11788568 0.037379023 -0.18314116 -0.00862744
0.072191976 0.47435957 0.23443659 0.027724586 0.0688918 0.1841988 0.27552232 0.013350677
0.13253228 0.18458252 0.20989607 0.28089803 -0.028873164 0.049707543 -0.08972635 0.1045357
-0.021906245 -0.02089495 0.114584416 0.023551682 0.5862573 0.23409198 0.20883241 0.0023077466
0.16863626 0.28328297 0.23757577 0.30059388 -0.1270617 -0.11067975 -0.031255018 0.16938354
-0.075491525 0.3271265 0.28778335 0.18865047 0.13141502 0.2926036 0.18644676 0.18444857
-0.009836898 0.2291224 0.29423693 0.028752403 0.14488742 0.07579477 0.3092565 0.2675956
0.14235385 0.11716908 0.18742236 0.2839729 0.060636293 0.44992065 0.10003672 0.1630811
-0.050649058 -0.08679463 0.042326365 0.2510014 0.1628157 0.18831335 -0.081132405 0.39415833
0.28078333 0.015215515 0.031045536 0.20295411 0.0476698 -0.17857146 0.07419491 0.008608015

residual_block.linear2.weight f4 [128, 128]
00000000: 2a0d d0bb 00ec febc 2740 f03d 5328 12be
00000010: 9c9e 403e d08c 80bd bfd4 a8bd 945d 83ba
00000020: 93d8 5c3d 6fc1 053d d7dc 48be 78a0 643d
00000030: a743 793c 4ceb a93d d97c f83d 7169 77bd
00000040: 709a 1fbc e5f1 8abd 26d9 9fbd c6ea cb3c
00000050: b74a 36be 41aa 46be 60a9 293c e908 65be
00000060: 9456 473b a1f4 953d 3054 d0bb cdf4 683d
00000070: 2928 35be 5ffe a53d 7aa5 97bc 3eff 9ebd
00000080: 242a ea3d 2399 10be c6a0 a9bd 3705 9c3d
00000090: 1b21 8f3e 30b8 99bd 8ec7 a3bd feee 1c3e
000000a0: 9f0f f1bc 629a 7bbe a7c8 853c 807a ebbc
000000b0: 16b4 31bd 89fc 8b3d 0f56 d73d c7d6 a33c
000000c0: 2165 4a3d 4ea0 21bb ef4d 033d c5c4 4b3e
000000d0: e1cd ccbd c12b c83c 5896 7d3e 4afd 183d
000000e0: 0a40 a03d 07d1 b6be 18e5 7a3e a187 ac3d
000000f0: eb54 f83c a15d 7b3c bb8c 4bbe 8c9c 6abe
00000100: 22a0 e1bd 20e4 51be 734c a7bd beb1 703e
00000110: 4260 2f3d eea8 273d c95e 4fbd 4f5e f43d
00000120: a235 f0bb 4085 41bc ef46 563c d8e5 06be
00000130: f5fe ecbd cbac 26bd bc87 003d 999a 87bd
00000140: e80d 17be d805 d5bb 1290 36bd d9e6 24bd
00000150: b97e c2bc ecc0 1b3d 0c5f 773d e788 06bd
00000160: 822f ccbd adcd eabd 1be6 b2bd 7419 e4bd
00000170: 6ad9 3c3e f5b8 48be 7434 1b3e 4221 51be
00000180: 4518 5d3e caca 2bbd 71e3 cabd 4b08 d93d
00000190: 6726 cf3b bce9 77be 6fd2 9cbd 5f9b 2abe
000001a0: 529d c33c 0979 f63d b230 e1bd f3b8 d43d
000001b0: b30d 3ebe 0ded 06be b5a0 cf3d e000 793b
000001c0: 507d 253d a385 193e 74ba 703d e6bb 013e
000001d0: 93ea d63d 2dcd 8dbd 5b28 43bb f04a 1abe
000001e0: 121d 85bd 48ee 213e 3c82 f7bd 41ef 183e
000001f0: 5f26 b3bc 914b 7f3e 1a71 13bc 6828 153e
00000200: a0bd b73d f1a5 d7bd ee41 7dbc 9fb2 ce3d
00000210: 31d0 223d 0ab4 e43b 5255 883d 2294 6e3c
00000220: 6a10 7d3d 3b99 4dbe 34aa 8d3d 0fab 0abd
00000230: a501 3fbe 3824 8d3d 096c 39be 575b 153d
00000240: f4dc e1bc 4dfb 813c 5cd5 e03d e0b3 b43d
00000250: 0b26 e7bd 6b5d e23d 1cfe dc3d b86d be3d
00000260: 223d 633d a202 8d3d 376a bf3d 76dc 64bc
00000270: 9b46 de3d f67e 19bc ced4 ef3c 52d3 9f3d
00000280: 4fe8 893d 64f7 103e 4342 d3bd e449 b43d
00000290: 2f13 ff3b 5664 4cbe 003d bfbd 8ca5 8bbe
000002a0: 1539 043e 2aee 1a3e 8ef5 343e 1bc3 5dbe
000002b0: c3ca dfbd 01e7 303c 9b26 723d 7498 53bd
000002c0: 5fbd 353d 57f4 b4bd 72ab 213d 9cac 323d
000002d0: 9257 403d f55b 313d aa4f f23b d2fe 813d
000002e0: 0ebc 463e cd40 f73c 80f9 373d 56ea 92bd
000002f0: eef4 c33d 2fc7 7b3b 850c 713b bef6 763d
00000300: e476 a13d c12a a83d 5e9a 97be cd4d 17bd
00000310: 1891 9e3e 171d 0dbe 3978 b53b 18aa 893e
00000320: 67a1 c63d 5820 5e3d dbd1 9cbd 4670 efbc
00000330: 94d3 8e3d d1ff 5a3d a860 5b3d cac8 f03d
00000340: 0575 35be f34e 54bc eea7 0bbe 5fd2 fdbc
00000350: 9cee babc 2189 79bd e50f aabd dd64 4c3e
00000360: dc56 9ebd 9367 653d eb46 28be 01a5 47bd
00000370: e634 60bd 71fa 09be 84e5 32be a317 713d
00000380: 20f4 383c 6789 e33c 0d00 75be 27ac c3bc
00000390: 613e af3d 4147 f4bd a5af 18be 7c38 503d
000003a0: 2490 d33a 1234 0e3d 8021 87be 5d7a 51bc
000003b0: 2b48 563e 1c9c 96ba 74b6 8ebd d563 b73b
000003c0: 9cef 91bd 5107 82bd 9b89 5fbe e26d ae3d
000003d0: e879 7b3e 7b4a 90be 6c57 abbd 0581 4c3e
000003e0: 6212 143d 9dd5 1ebd f60a 5fbd a648 a43d
000003f0: 8d5d c5bc b823 363e 58fa ae3d 0063 ecbd
-0.0063492255 -0.031118393 0.11730986 -0.14273195 0.18810505 -0.06276858 -0.08243703 -0.0010022395
0.05391748 0.032655176 -0.19615494 0.055817097 0.0152138835 0.082968324 0.12133188 -0.06040329
-0.009741411 -0.06784419 -0.0780509 0.024892222 -0.17801939 -0.19400884 0.010355324 -0.2236668
0.0030416595 0.0732205 -0.006357692 0.056874085 -0.17691101 0.08105158 -0.018511523 -0.07763527
0.11433819 -0.14120917 -0.08282618 0.07618182 0.27954945 -0.07505834 -0.079970464 0.15325543
-0.029426394 -0.24570611 0.01633103 -0.028744936 -0.043384634 0.06835277 0.10514461 0.019999875
0.04941285 -0.00246622 0.032056745 0.1989928 -0.10000206 0.024434926 0.24764383 0.03735093
0.078247145 -0.3570635 0.24501455 0.08424307 0.03031393 0.015342147 -0.19877903 -0.2291128
-0.11016871 -0.20497179 -0.081688784 0.23505303 0.042816408 0.04093259 -0.050627504 0.119320504
-0.0073306123 -0.011811554 0.013078435 -0.13173616 -0.11572067 -0.040692132 0.031379446 -0.06621284
-0.14751399 -0.006500941 -0.04457099 -0.040259216 -0.023742067 0.03802578 0.06039338 -0.032845404
-0.09969999 -0.11465011 -0.087352954 -0.11137667 0.18442312 -0.19601806 0.15156728 -0.20422843
0.2159129 -0.04194144 -0.09906662 0.10597285 0.0063217166 -0.24210256 -0.076573245 -0.16660832
0.023878727 0.120348044 -0.10995616 0.10386839 -0.18559913 -0.13176365 0.10138074 0.0037994906
0.04040271 0.14992385 0.058771566 0.12669334 0.1049396 -0.069239 -0.0029778692 -0.15067649
-0.06499685 0.15813553 -0.12085387 0.14935018 -0.021868883 0.2493117 -0.0089991335 0.14566195
0.08971715 -0.10529698 -0.015457613 0.10092663 0.039749328 0.00697947 0.066568986 0.014561685
0.06178323 -0.20077984 0.06917229 -0.03385454 -0.18652971 0.06891674 -0.18107618 0.03646406
-0.027571179 0.0158669 0.10978195 0.08823371 -0.11286553 0.11052974 0.10790655 0.09298271
0.055478223 0.06885268 0.09346431 -0.013968578 0.10853311 -0.009368649 0.029276278 0.07803978
0.067337625 0.14156872 -0.10315373 0.08803156 0.0077842693 -0.1996015 -0.09337807 -0.2727474
0.129124 0.15129915 0.17671797 -0.21656458 -0.109273456 0.010797263 0.05911885 -0.051659063
0.04437005 -0.088356666 0.039470144 0.043621644 0.046958514 0.043300588 0.0073947506 0.06347431
0.19407675 0.030182267 0.044915676 -0.07173602 0.09568201 0.0038418283 0.0036781144 0.060293905
0.07884005 0.0821128 -0.2960996 -0.03693943 0.30970073 -0.13780628 0.0055380133 0.26887584
0.09698754 0.054230064 -0.07657214 -0.02922834 0.06973949 0.05346662 0.053558975 0.117570475
-0.1772042 -0.012958276 -0.13638279 -0.030984102 -0.022818856 -0.060921792 -0.08303813 0.19960351
-0.07731411 0.05600698 -0.16433303 -0.048741344 -0.054737948 -0.13474442 -0.17470366 0.058860432
0.011288673 0.02777548 -0.239258 -0.0238858 0.0855682 -0.11927653 -0.14910753 0.050835118
0.001614098 0.034717627 -0.26392746 -0.012785521 0.20925967 -0.0011490616 -0.06968394 0.0055966177
-0.0712578 -0.06349052 -0.21829836 0.08517052 0.24558222 -0.28181824 -0.08366284 0.19971092
0.036150344 -0.038777936 -0.054453813 0.08021669 -0.02409246 0.17787063 0.08543843 -0.1154232

residual_block.linear2.bias f4 [128]
00000000: 27a5 44bd 0480 cf3d 1dcb f2bc 2f05 c6bd
00000010: 349c 1d3e fc08 10be be22 643d 49a3 39ba
00000020: 5ef3 8e3d 2190 8cbd 1fb1 e23c ba46 23bd
00000030: 99d4 79bd 9e4d 163d 1cd8 83bd 07fe 9dbd
00000040: dd5d 643c 19df 453e cd2b cd3d 09db 0e3d
00000050: 3550 333e 5705 263d d47d 843d b5f0 00be
00000060: 1efb 82bd 2449 06be 441d 5b3d 08ea 063d
00000070: e459 c9bd e954 9bbc ce92 a4bd 3cf1 b43d
00000080: fb94 c03d fbe3 d9bd 4d7c 273d d935 84bc
00000090: 6e55 593d 5568 c6bd 6abf 1cbe 754a a6bd
000000a0: 2439 ca3c 5cf8 88be a44c e73c b870 d33d
000000b0: 2711 88bd b062 3e3e e81e c9bd 5b84 1abe
000000c0: ea68 debd bc51 0a3e a295 753d 34bd 46bd
000000d0: 9c6c e2bd 4917 e6bd 879f 35bd b73d 223d
000000e0: 608c 643d bdf5 f43c 3db3 f6bd 3b1e c5bc
000000f0: 464b 3b3d a974 f7bd 7bcf 18be 6e37 613d
00000100: efa1 3bbe 938a d93d 250f ecbd 4bff 26bd
00000110: 7bb1 71bd 6bc6 9ebd 4e07 9abd 1856 a83d
00000120: 9017 423e 13a6 7c3d 3f2a db3d 53a5 293d
00000130: 4a2c 1ebd 8a7e 81bd 21ba 093e d81f f23d
00000140: ae32 0bbe e182 bfbb c4db ea3d ab2c 383e
00000150: 43a3 2ebe c1f3 c4bd cff0 44bd 6b62 0dbd
00000160: c7d6 09be 0096 81bc d078 493d d76a e23d
00000170: 8e08 cd3d 6a7e ccbc d12b 4fbc 1ce1 c6bc
00000180: c735 a0b9 c9cc 37be aabe 3b3d 8017 913d
00000190: 6c7e 143e 7f0d 21be d1fa 16be 50c6 9f3d
000001a0: 555a af3d 6b5d 393d 9d92 803c 97f7 8dbd
000001b0: cc86 92bb cf57 ba3b 66af 45bd f38e b9bd
000001c0: b78f d4ba cba3 1ebd 9523 223e 3096 0ebe
000001d0: 72dc 083d 06e1 8fbd acbd 89bd 0396 563e
000001e0: 56c3 7e3d 7b17 9d3d 5f81 b33d 1115 f63d
000001f0: e7c8 00be 5a6a 5abd 11b0 8d3d 9b3e 23be
-0.048009064 0.10131839 -0.029637868 -0.096689574 0.15391618 -0.14065927 0.055697195 -0.00070815213
0.06980012 -0.06863428 0.027672349 -0.039862372 -0.060993765 0.036695115 -0.06437704 -0.077144675
0.013938394 0.19323386 0.1001812 0.034876857 0.17511065 0.040532436 0.06469312 -0.12591822
-0.06395553 -0.13113838 0.053494707 0.032938033 -0.098315984 -0.018961387 -0.08035813 0.08835074
0.09403416 -0.10639187 0.040890027 -0.016138958 0.053059988 -0.096878685 -0.15307394 -0.0811967
0.02468545 -0.26751983 0.028234787 0.10324234 -0.066438965 0.18592334 -0.09820348 -0.15089552
-0.108598545 0.13507742 0.059957154 -0.048520282 -0.11055872 -0.1123491 -0.04434159 0.039609637
0.055797935 0.029902333 -0.12045906 -0.024062267 0.045726083 -0.12082798 -0.14922898 0.054984502
-0.18323492 0.10622134 -0.11526326 -0.04077081 -0.05900715 -0.07752689 -0.075209245 0.08219546
0.18954301 0.06168182 0.10701417 0.04141743 -0.038616456 -0.063229635 0.13449909 0.1182248
-0.13593552 -0.0058444594 0.11467698 0.1798579 -0.17054467 -0.09616805 -0.048081215 -0.034517687
-0.13460837 -0.015818596 0.04918748 0.11055534 0.10011397 -0.024962623 -0.012644724 -0.024277262
-0.00030557645 -0.17949213 0.04583613 0.070845604 0.14501351 -0.15727805 -0.14744116 0.07801497
0.08562151 0.045255106 0.01569491 -0.0693199 -0.0044716354 0.005686737 -0.048262976 -0.090604685
-0.0016217147 -0.038730424 0.15833886 -0.1392448 0.033413358 -0.07025342 -0.0672563 0.20955662
0.062198006 0.07670494 0.0876491 0.12015737 -0.12576638 -0.05332408 0.069183476 -0.15941851

fc2.weight f4 [10, 128]
00000000: 94ad 05be 6d57 b73b 28e8 efbd 3b21 c6bd
00000010: 03fc f83d e366 bfbd fbaa 063e 93be f7bd
00000020: 2e5e af3d 6da0 7abd 4e4a d8bc a209 67be
00000030: 23be 0c3e 2256 7c3d 6319 01be 56dc 5fbc
00000040: 13ff 25bd 0a07 db3d 59e4 46bd 1079 15bd
00000050: 70f2 b0bd 4dd1 5bbc 62f7 053e 5ae5 84bc
00000060: c889 cc3c 2a3e e93d d997 77bd f836 d13d
00000070: d42c 043e 0d98 b2bb a1fe ee3d 6f8b 263e
00000080: 74d7 31b9 e709 5c3d b622 da3d de45 9c3d
00000090: d288 59be 0503 ef3d 0a09 143d c7fb cb3d
000000a0: c152 f53c 7ca0 11be 7834 8e3d 0eca e2bd
000000b0: 9066 36be 6c1e db3d 0f3e 393d 1d9d 903e
000000c0: fa7f e4bd fa53 e63d a6d1 ef3d 0975 9fbe
000000d0: 378d b73d cb1d 44be 24b7 4e3e 0551 bf3d
000000e0: eafd 9ebd e520 253e fec7 bcbd f4cb e63b
000000f0: 9a74 efbd f151 8a3d 2833 a7bd 7a22 ff3c
00000100: 13e3 f2bd 5aa6 c8bd fcf0 8a3c bce7 2dbd
00000110: f75a af3d 0856 25bd 205e 263e c7be 16bd
00000120: 1499 29be 433c 883d 0c2f 383e 4f52 ddbd
00000130: fff0 293d 8ad7 b8bd d7bd 873c 0ac6 01be
00000140: d359 27bd 5a53 80bd 9fb3 76bc 5cb5 42be
00000150: 5bf0 c0bd 7874 7fbe b977 04bd baf7 48be
00000160: d213 63bc 99fe e63c 6091 8bbc 259f e6bd
00000170: 455c a83c 1fc3 243e 10e5 0d3e f2f7 9dbd
00000180: 0b7e 34bd 3708 983d 0ecd 56bd 87bd 25be
00000190: 05ba 25bd aa6a 87bd ca27 e53d bfbf 673c
000001a0: 35c7 ca3d 4fa4 4b3d b932 143b 5925 433d
000001b0: 9531 67bc 016a 0d3d 80e6 313e 2778 ad3d
000001c0: 4e93 283c cfc7 68be 5980 04bc cb60 6f3e
000001d0: 6ea7 d73d b77d 8dbc 0580 f03d d87e 503d
000001e0: 9cbe 99bd ca8e 49bd 5ced 29bc 434b b2bd
000001f0: 2a98 873b 38e6 57bd ea95 c13c 1abb 38bd
00000200: f04d 1a3e 14aa c2bc 4724 9a3e bb51 3d3e
00000210: e0f0 82bd fe4c 763e 8a9f 12be 9947 a9bc
00000220: 7d7c efbd 29b7 dbbd 5083 a8be eeeb 073d
00000230: bc38 e73d 8c74 22be 77a0 333e 71a0 0f3e
00000240: cde0 5abd 79db 96be fd96 88bc 7ffc a13d
00000250: 2724 43be 92aa 29be 48b3 d6bd 1156 bebd
00000260: 3f3c 283e 999f 793d 10b0 263e e86c 82bd
00000270: 1bab cdba 78e9 39be 1f17 10be c272 70be
00000280: a11b 68be 8ef4 0f3d 26d0 923d 1ef7 b63d
00000290: d9d1 a33d 3271 3a3e 4fe0 9f3e 623f f53d
000002a0: 65a8 b4be 3b91 1b3e b1e7 c0be 92a3 8a3d
000002b0: 2478 f03d c0f6 35bd 9ddc abbd 12ec d9bd
000002c0: 4ce9 053e 0156 f73c 2ef5 04be 7cdd 15bd
000002d0: 46ea 003e 8e03 193d fbaf 04be fe53 adbd
000002e0: cae3 b1be b190 5f3d 2ee7 24be 79b8 ef3d
000002f0: 1f7b 723c 8507 813d 2090 383d 3beb 603e
00000300: c940 e83e fab7 1ebe 4b86 0c3e d02b dabc
00000310: ba59 bf3c 5c7d 2cbe 5e94 44be 97de fbbd
00000320: 24f1 66be 3ea8 023e 6d3e 85be 7be4 b83d
00000330: 8efd 25be 31a8 2fbe 3a75 85be 5f5b afbe
00000340: ce97 7d3e e126 e83d 2ec8 48bd 0b84 eebe
00000350: 79b0 35be 77a0 0f3d 86b9 5f3e d38b be3d
00000360: c85a 003e 1634 e3bd 478d 183d 9e51 203c
00000370: e0b5 50be a1fd ec3d 1315 453d 313d 743d
00000380: 4070 4cbe c220 a6bd 097f 163e 8e77 eabd
00000390: 9423 57be 882b 4bbe cef2 fbbc 2b62 b3be
000003a0: c9f5 5d3d f6c0 99be 491f 83be 34d3 39bd
000003b0: 01d3 e7bd e6d3 12bc 31ce 83be 18ac 51be
000003c0: f8d7 32bd 6d6d 863c 03cc 48be 2eae 053e
000003d0: 2683 953d a40b 92be 72e2 38be 595c 95bc
000003e0: 99d1 44bd 45ab 0abe d9ee e23d 439c 92be
000003f0: b939 28bc 3f10 dd3d eb56 0b3e d3cf c93e
-0.13054496 0.0055951388 -0.11714202 -0.09674307 0.121574424 -0.09345796 0.13151161 -0.12096896
0.08562885 -0.06118815 -0.026402619 -0.22562268 0.13744406 0.06160558 -0.1260734 -0.013663372
-0.04052646 0.10694702 -0.048557613 -0.036492407 -0.08639991 -0.0134166 0.1308265 -0.016222645
0.024968043 0.1138881 -0.060447548 0.102155626 0.12907726 -0.005450255 0.1166966 0.16264127
-0.00016960298 0.05372038 0.10651152 0.076305136 -0.21243599 0.11670498 0.036141433 0.09960132
0.029946687 -0.14221376 0.06943601 -0.11073695 -0.17812562 0.10699162 0.0452252 0.28244868
-0.11157222 0.11246486 0.11709909 -0.31143978 0.089624815 -0.1915199 0.2018705 0.09341625
-0.07763274 0.1612583 -0.09217833 0.007043356 -0.11692162 0.0675391 -0.08164054 0.03114437
-0.11859717 -0.09797354 0.016960613 -0.042457327 0.08562272 -0.04036525 0.16246843 -0.036803033
-0.16562301 0.06652119 0.17986697 -0.10806715 0.041489597 -0.09025486 0.016570015 -0.12673202
-0.040857147 -0.06265898 -0.015057473 -0.19014496 -0.09420844 -0.24946773 -0.03234074 -0.1962575
-0.013859706 0.028197573 -0.017037094 -0.11260823 0.02055181 0.16090058 0.13856912 -0.077133074
-0.044065516 0.07423442 -0.05244165 -0.1618558 -0.040460605 -0.066121414 0.1118923 0.014144837
0.09901277 0.049717244 0.002261324 0.04764304 -0.014110942 0.03452492 0.17373085 0.08470183
0.010289026 -0.22732471 -0.008087241 0.23376767 0.105299816 -0.01727186 0.11743168 0.050902218
-0.07507059 -0.04920844 -0.010371532 -0.08705761 0.0041380124 -0.052709788 0.023631055 -0.04510031
0.15068793 -0.02376274 0.30105802 0.18488209 -0.063935995 0.24052808 -0.14318672 -0.020664023
-0.11693666 -0.107282944 -0.32912683 0.033183984 0.11290118 -0.15864772 0.17541681 0.14026047
-0.053437043 -0.2946432 -0.01667356 0.07909488 -0.1905676 -0.16568974 -0.10483414 -0.092937596
0.16429232 0.06094322 0.162781 -0.063684285 -0.0015691252 -0.18155468 -0.1407132 -0.23481277
-0.2266679 0.035145335 0.071686074 0.089338526 0.0799901 0.18207243 0.3122582 0.1197498
-0.35284725 0.1519212 -0.37676767 0.0676948 0.11741665 -0.044424772 -0.08391688 -0.1064073
0.13077277 0.030192377 -0.12984154 -0.036588177 0.12589368 0.037356906 -0.12957756 -0.08463286
-0.34744102 0.054581348 -0.16103813 0.11705107 0.014799862 0.06300262 0.045059323 0.21964733
0.45361927 -0.15499869 0.13723104 -0.02663222 0.023358215 -0.16844696 -0.19197223 -0.12298315
-0.22552925 0.12759492 -0.2602419 0.09027954 -0.16210005 -0.17154004 -0.26066 -0.34249398
0.2476494 0.113355406 -0.04901903 -0.46585116 -0.177431 0.03506514 0.21848115 0.09304013
0.1253463 -0.11093919 0.037244108 0.009785084 -0.2038188 0.115718134 0.0481158 0.05962867
-0.19964695 -0.08111717 0.14696898 -0.114485845 -0.21009666 -0.19840825 -0.030755427 -0.35035834
0.054189477 -0.3003003 -0.25609806 -0.045367435 -0.11319543 -0.008961653 -0.2574325 -0.20475805
-0.043662995 0.0164096 -0.19609074 0.13054726 0.07300405 -0.28524506 -0.18055132 -0.018232511
-0.04805145 -0.13541897 0.11080713 -0.28634843 -0.010267668 0.10794114 0.13607375 0.3941637

fc2.bias f4 [10]
00000000: 8a92 a9bd b9f6 84be 4d12 bc3d e861 343d
00000010: 889d e6bc 13f3 76bd dd73 043e 18fc 7c3d
00000020: c9f5 81bd e83e 3fbe
-0.08279903 -0.25969484 0.09183178 0.044038683 -0.028151289 -0.060290407 0.12934823 0.061763853
-0.06345708 -0.1867634
